results/dqn_cartpole/model.pt (torch, 71575 bytes, 6 tensors)

layers.0.weight f4 [128, 4]
-0.15674454 0.034948908 0.46657655 0.3907188 -0.89002997 -0.057045072 0.5054255 0.2890584
-0.9702179 -0.09773236 0.545278 0.20335042 0.20372906 0.2931156 -0.36568186 0.18452376
-0.43107283 -0.6370044 -1.6237425 -0.6687726 -0.40564454 -0.43524083 -0.07547966 0.19732524
-0.47511798 -0.21444649 0.552858 0.28811303 -0.418188 0.10424291 -0.3528718 0.06463859
-0.09026056 -0.22238183 -0.46181077 0.11073174 -0.3953024 -0.75612754 -0.10298045 0.43026462
-0.4772875 -0.598482 -0.26805145 0.15465789 -0.19096605 0.055063907 -0.1665444 0.19085565
-0.30894423 -0.1766554 0.41812083 -0.09686378 0.24286272 -0.37887257 0.18714553 -0.23668982
0.28609866 -0.33999375 0.020727037 -0.10367266 0.40277976 0.89054215 -0.64060616 0.116011955
-0.041331436 -0.03726645 0.3482184 -0.12075804 0.43777445 0.27929825 -0.55486196 -0.075202405
0.22948365 0.23931707 -0.35842988 -0.27788195 0.16806519 0.68902874 0.82871 0.39478883
0.26034123 0.15817545 -0.28009877 0.38944325 -0.06329236 -0.03627115 -0.27793676 -0.17847486
-0.030819077 0.2907135 0.35226986 -0.005442294 -0.40376198 -0.48172885 0.011745541 -0.24837998
-0.15547888 -0.34793442 -0.5549299 0.00065569504 -0.4857999 0.36546233 -0.20157734 -0.11182874
-0.024955275 0.15138215 0.22791919 -0.042442624 0.052398156 0.63871235 1.5342746 0.46015432
0.43915716 0.7122576 0.7168349 0.45591572 -0.6836201 -0.6618053 -0.82512045 -0.35391375
-0.7210446 -0.49180546 -0.17892115 0.08953629 0.38911632 0.061579958 -0.2104038 0.02716162
0.39117616 -0.35153115 0.20079803 -0.124911845 0.30832022 -0.11937566 -0.072967954 -0.07509938
-0.75586665 -0.6072758 0.22177872 -0.13203275 0.25058168 0.32799184 0.06959362 -0.06583823
0.35046616 0.30536425 -0.22728518 -0.15759954 -0.27249435 0.5822949 0.2945311 -0.16813663
-0.60301554 -0.9856628 -0.3099004 -0.6494715 0.24089068 -0.097393416 -0.58517575 0.20317692
0.30184513 -0.14298691 -0.12034189 -0.12490236 0.4562337 0.0795376 -0.22276054 0.15413678
0.059140477 0.03892045 0.39775065 0.03595869 0.55811787 -0.4367415 -0.70552677 -0.5713031
0.13364391 0.3261994 1.307763 0.58528674 -0.16695553 0.027402878 0.44940388 -0.076975346
-0.2568747 0.07116978 0.12929063 0.06779156 0.27765894 -0.4837465 -0.42386806 -0.0050755595
0.5144445 0.14172606 0.028772641 -0.2454888 0.6163504 -0.20181488 -0.42213875 -0.29355192
-0.10683227 0.30465204 -0.2688461 0.04294422 0.3358388 -0.02247532 -0.8456792 -0.074143246
0.16193391 -0.3268079 -0.0055638375 -0.0920025 -0.2447729 -1.051858 -0.73529655 -0.6912395
0.21953334 0.39353055 1.3751163 0.6672602 -0.15157911 -0.52714056 -1.4444655 -0.3730087
0.2382992 0.11748279 -0.0062228525 0.14673126 0.5302649 0.20063372 -0.05298688 -0.1771947
-0.25321406 0.06556611 0.2819362 -0.13422728 -0.1558733 0.28830042 0.90912104 0.4134192
-0.51277226 -0.5522897 -0.12113447 -0.2340026 0.48879355 -0.39050654 -0.10732441 -0.021788783
-0.2510837 -0.7611131 -0.31820032 0.10230075 0.69837445 0.46518797 -0.06244865 -0.14782396
00000000: a481 20be 9626 0f3d 1fe3 ee3e 4b0c c83e
00000010: 01d9 63bf 18a8 69bd 9163 013f 76ff 933e
00000020: 3360 78bf e727 c8bd 5797 0b3f 183b 503e
00000030: 5a9e 503e 3f13 963e a73a bbbe ccf3 3c3e
00000040: 94b5 dcbe b812 23bf cbd6 cfbf ae34 2bbf
00000050: a4b0 cfbe e3d7 debe 1495 9abd a10f 4a3e
00000060: aa42 f3be dc97 5bbe 1a88 0d3f 8d83 933e
00000070: bd1c d6be 4f7d d53d 9dab b4be 3d61 843d
00000080: 87da b8bd 10b8 63be 7672 ecbe 53c7 e23d
00000090: 1465 cabe 9391 41bf 6ae7 d2bd a54b dc3e
000000a0: 075f f4be 1e36 19bf 0a3e 89be a35e 1e3e
000000b0: 9b8c 43be b18a 613d 9d8a 2abe aa6f 433e
000000c0: f02d 9ebe 27e5 34be ef13 d63e 8460 c6bd
000000d0: 01b1 783e 96fb c1be 14a3 3f3e d15e 72be
000000e0: 867b 923e a913 aebe bfcb a93c 5552 d4bd
000000f0: 2639 ce3e 92fa 633f c4fe 23bf ad97 ed3d
00000100: 274b 29bd b4a4 18bd af49 b23e fe4f f7bd
00000110: f923 e03e 2e00 8f3e 6f0b 0ebf b803 9abd
00000120: c3fd 6a3e 890f 753e 1f84 b7be 8b46 8ebe
00000130: 4819 2c3e 3064 303f 5726 543f c321 ca3e
00000140: 724b 853e bff8 213e 1b69 8fbe 1b65 c73e
00000150: 6d9f 81bd 0f91 14bd ba4d 8ebe 1dc2 36be
00000160: 4a78 fcbc 66d8 943e b75c b43e 4555 b2bb
00000170: e4b9 cebe 2aa5 f6be 5f70 403c 5257 7ebe
00000180: db35 1fbe 7624 b2be e30f 0ebf f3e2 2b3a
00000190: c4ba f8be e11d bb3e 4a6a 4ebe 7706 e5bd
000001a0: 016f ccbc ec03 1b3e a663 693e 51d8 2dbd
000001b0: 739f 563d a782 233f 1c63 c43f 5999 eb3e
000001c0: 35d9 e03e 8456 363f 7e82 373f c96d e93e
000001d0: ba01 2fbf 126c 29bf 183b 53bf 2f34 b5be
000001e0: 6196 38bf edcd fbbe 1b37 37be cd5e b73d
000001f0: 413a c73e 443b 7c3d 1874 57be 0c82 de3c
00000200: 3e48 c83e e4fb b3be 009e 4d3e c8d1 ffbd
00000210: 26dc 9d3e 3a7b f4bd 3970 95bd b4cd 99bd
00000220: 7a80 41bf 6d76 1bbf f619 633e 9833 07be
00000230: 3e4c 803e 8cee a73e 1a87 8e3d 32d6 86bd
00000240: 4d70 b33e b458 9c3e 72bd 68be c661 21be
00000250: 6184 8bbe 4711 153f c8cc 963e 022c 2cbe
00000260: 3a5f 1abf 6654 7cbf 44ab 9ebe c443 26bf
00000270: 0cac 763e 3376 c7bd 14ce 15bf 9c0d 503e
00000280: 728b 9a3e 296b 12be cf75 f6bd cfcc ffbd
00000290: 7797 e93e 9ce4 a23d 571b 64be 08d6 1d3e
000002a0: 493d 723d 0d6b 1f3d f9a5 cb3e 6b49 133d
000002b0: d0e0 0e3f 959c dfbe 679d 34bf ec40 12bf
000002c0: f3d9 083e 9c03 a73e c764 a73f 5ad5 153f
000002d0: 64f6 2abe 007c e03c 4418 e63e 40a5 9dbd
000002e0: 1585 83be 76c1 913d c364 043e 4dd6 8a3d
000002f0: 5029 8e3e 9fad f7be 3c05 d9be e150 a6bb
00000300: a2b2 033f a320 113e 9ab4 eb3c 6a61 7bbe
00000310: 24c9 1d3f 8fa8 4ebe 9222 d8be 704c 96be
00000320: e1ca dabd 5afb 9b3e 32a6 89be 47e6 2f3d
00000330: 10f3 ab3e 2a1e b8bc 6f7e 58bf 6ad8 97bd
00000340: 01d2 253e 5d53 a7be da50 b6bb cf6b bcbd
00000350: bfa5 7abe 48a3 86bf 653c 3cbf 12f5 30bf
00000360: 59cd 603e d67c c93e d003 b03f 91d1 2a3f
00000370: 8e37 1bbe aff2 06bf 3fe4 b8bf fffa bebe
00000380: b504 743e d19a f03d 12e9 cbbb b840 163e
00000390: 71bf 073f ed72 4d3e c508 59bd 8772 35be
000003a0: 46a5 81be 8647 863d f159 903e e072 09be
000003b0: 409d 1fbe 1d9c 933e 28bc 683f aeab d33e
000003c0: 0b45 03bf dc62 0dbf 5915 f8bd 619e 6fbe
000003d0: 2643 fa3e 79f0 c7be e6cc dbbd 647e b2bc
000003e0: 0b8e 80be 4fd8 42bf 27eb a2be 0e83 d13d
000003f0: abc8 323f 1e2d ee3e 28ca 7fbd 2a5f 17be

layers.0.bias f4 [128]
-0.18833086 0.46106717 0.3221861 0.33969694 0.06328686 0.5299634 -0.5413644 0.30145675
0.6837609 0.0531454 0.43460917 0.7335541 0.63321996 -0.4187015 0.48399734 -0.3723414
0.59353304 -0.28693616 0.4120851 0.066966414 0.40837505 0.6307005 0.4031518 0.45681697
0.36430866 -0.1377429 0.5689274 0.036028113 0.053861313 -0.021843957 -0.24797995 0.52575296
0.49080276 0.42730308 0.1284256 0.22009727 -0.510405 -0.012559907 -0.07820363 0.3949845
0.6248556 -0.21035343 0.5125057 0.2704991 -0.30646983 -0.3843202 0.4975505 0.59655064
-0.033396635 0.22963516 -0.4840168 0.23290174 0.5985058 -0.050675225 -0.22513431 -0.033919092
0.5423626 -0.30191147 0.5427632 0.111892514 -0.10286543 0.423675 -0.035189964 0.16847564
-0.4549426 0.6744413 0.4498939 0.7042383 -0.53413945 0.1708377 -0.20088655 -0.2200856
0.56592166 -0.07576263 0.4213518 0.5543096 -0.063739546 0.20750114 -0.17751358 0.3771342
-0.29223666 -0.2255593 -0.5941968 -0.16783382 0.5045651 -0.14343593 -0.059379295 0.710608
-0.07961079 0.32455462 0.4869612 0.058106083 -0.08712527 -0.369855 0.42140546 0.017265815
0.73996943 -0.39136767 0.34737223 0.8134513 -0.29427308 0.86589 0.123886004 -0.044010896
-0.47672188 0.69730693 0.3745957 0.5809121 0.7397141 -0.03792397 0.4834458 -0.10823038
0.2506235 -0.30627096 -0.43085274 0.3521792 0.6312657 0.05170003 0.7554625 0.3406122
0.28470516 -0.51032704 0.6499607 0.020197025 0.69307387 -0.070246145 0.28595236 0.6066646
00000000: ced9 40be ff10 ec3e 94f5 a43e c2ec ad3e
00000010: 8b9c 813d aeab 073f db96 0abf 8a58 9a3e
00000020: f40a 2f3f feae 593d 1885 de3e 34ca 3b3f
00000030: b41a 223f 0b60 d6be 80ce f73e 88a3 bebe
00000040: c8f1 173f 4ce9 92be d1fc d23e b025 893d
00000050: 8916 d13e 9775 213f ea69 ce3e eae3 e93e
00000060: aa86 ba3e 7a0c 0dbe 3aa5 113f 3792 133d
00000070: ae9d 5c3d 19f2 b2bc 75ee 7dbe bf97 063f
00000080: 804a fb3e 78c7 da3e 0082 033e 2e61 613e
00000090: e7a9 02bf 11c8 4dbc 3a29 a0bd 693b ca3e
000000a0: 89f6 1f3f e466 57be 9333 033f dc7e 8a3e
000000b0: 9de9 9cbe 9ec5 c4be f0be fe3e 8bb7 183f
000000c0: e9ca 08bd 7b25 6b3e 0dd1 f7be cb7d 6e3e
000000d0: ad37 193f d390 4fbd 9c89 66be bfee 0abd
000000e0: 46d8 0a3f 2494 9abe 87f2 0a3f e727 e53d
000000f0: 1cab d2bd eeeb d83e 5a23 10bd e184 2c3e
00000100: 3dee e8be 2fa8 2c3f 7e58 e63e f648 343f
00000110: 5dbd 08bf 14f0 2e3e 34b5 4dbe 1f5e 61be
00000120: 3ee0 103f 7029 9bbd 6cbb d73e 3ce7 0d3f
00000130: e189 82bd 2e7b 543e 1fc6 35be bc17 c13e
00000140: 0ba0 95be 04f9 66be 481d 18bf a1dc 2bbe
00000150: 2e2b 013f dee0 12be b437 73bd 68ea 353f
00000160: fb0a a3bd 062c a63e fa52 f93e a500 6e3d
00000170: bc6e b2bd a25d bdbe 75c2 d73e 0a71 8d3c
00000180: a36e 3d3f 5861 c8be c6da b13e 583e 503f
00000190: f6aa 96be f8aa 5d3f f2b7 fd3d c544 34bd
000001a0: e414 f4be b582 323f 02cb bf3e a8b6 143f
000001b0: e75d 3d3f 2a56 1bbd 3586 f73e e4a7 ddbd
000001c0: b951 803e 8ccf 9cbe bb98 dcbe d550 b43e
000001d0: a19a 213f 69c3 533d fe65 413f b964 ae3e
000001e0: e0c4 913e cba4 02bf d363 263f 3b74 a53c
000001f0: 4a6d 313f 36dd 8fbd 5968 923e 5f4e 1b3f

layers.2.weight f4 [128, 128]
-0.0403651 -0.00751541 -0.01041776 0.06022743 0.048534423 0.023724798 0.0012436062 -0.05360709
-0.087194934 0.0027266368 0.028393447 0.020154728 -0.07239828 -0.07323034 0.046137124 0.042030223
0.0046078516 0.025463335 0.04326274 0.0047845915 0.02515167 -0.09730938 0.065269165 -0.035469394
-0.023567265 0.010844265 -0.025649915 0.006717615 -0.035501026 0.010410334 -0.07094926 0.076420344
-0.113860734 -0.045748986 -0.0041160826 0.02864773 -0.0020478815 -0.040595505 -0.08789316 -0.065094635
-0.1052002 0.03885471 -0.006563248 -0.01790348 -0.05828435 -0.0125443265 -0.042036284 0.022610122
-0.07778505 0.08322766 -0.06673023 0.03430724 -0.08024906 -0.051808137 0.07854899 -0.03728781
0.043802835 -0.003321059 -0.023544226 -0.07301565 0.012441055 -0.041346535 -0.11580868 0.0694625
-0.080170766 -0.012494951 -0.054745197 -0.05953549 -0.012665264 -0.063204296 -0.062471133 -0.068658516
-0.053490672 0.026060663 -0.075072795 -0.015686378 -0.072519794 -0.04062853 -0.06959863 -0.02436013
-0.0065644905 0.016311027 -0.05475182 -0.02700879 0.052737396 -0.082607865 0.03315807 -0.051908087
0.020840928 -0.02211823 -0.017410547 -0.0063162073 -0.03212928 -0.02877165 -0.086834855 -0.020053253
0.054173477 -0.08204001 0.042265117 -0.04123676 -0.07685645 -0.10955672 -0.02685013 -0.027539868
-0.0079393685 -0.0075811967 -0.07037376 -0.09759668 -0.07598998 0.021174876 -0.108387396 -0.046222344
0.026688576 -0.05875629 0.039532878 -0.09984497 -0.08504315 -0.032667156 -0.050586935 -0.09933374
-0.04255486 0.08466188 -0.03334534 0.08270156 -0.00034264423 0.019571315 -0.01759098 -0.08623109
-0.050827887 -0.022595212 -0.057774056 -0.04198354 -0.059820287 -0.08518577 -0.07561633 0.0626686
-0.0656769 -0.052645374 0.062175803 -0.013300806 -0.02833189 -0.032673847 -0.0018462837 -0.083428115
-0.0028956681 -0.021700561 -0.029699937 0.00080179423 -0.06773122 -0.08297372 0.0068069696 -0.03795742
0.03455419 -0.084862955 -0.029007632 -0.07074696 0.054820113 0.057944484 -0.005517699 -0.08552394
0.024585992 -0.060806416 0.032385573 -0.007419795 -0.08265788 -0.08159812 -0.08125961 0.040180005
-0.053040795 0.01938966 0.054456092 0.07488469 0.06324998 0.022283219 0.08680279 -0.07602608
0.037719257 0.022517756 -0.04218669 -0.053676296 0.059577875 0.003835693 -0.06398638 -0.025735758
0.04421272 -0.08433421 0.036586046 0.061472975 0.014983818 -0.002734013 0.085322626 -0.071243875
0.0498259 0.042310603 -0.077936836 -0.028865784 0.011489548 0.042864315 0.057439722 0.08244122
-0.021138266 -0.0056271404 0.037520535 0.06077791 0.004173897 -0.06998605 -0.022238806 0.009748176
0.034529574 -0.016611055 -0.04643646 -0.0149137005 0.006300576 -0.062289856 -0.04756095 -0.03687177
-0.04772616 -0.07844719 -0.08514931 0.047037385 -0.088355474 -0.0032682791 -0.063182905 -0.07958318
0.015158638 -0.0028032362 0.027983807 -0.02894305 -0.0033189803 -0.03641158 0.065380536 -0.06203544
-0.02526661 0.017977715 0.03355404 -0.054990403 0.0153093785 0.04373113 0.0053904653 -0.07294227
-0.030779138 -0.046161957 0.08717509 0.08735172 -0.003535822 0.07018999 -0.023991145 0.008382052
0.06025847 0.0095715895 -0.057207614 -0.045200787 -0.07885 0.0859726 -0.019462764 0.012662038
00000000: e055 25bd d443 f6bb 41af 2abc 0ab1 763d
00000010: 08cc 463d 825a c23c 8000 a33a 1c93 5bbd
00000020: 4293 b2bd 60b1 323b 6099 e83c 871b a53c
00000030: 8d45 94bd caf9 95bd 48fa 3c3d e227 2c3d
00000040: 76fd 963b 7c98 d03c 4534 313d 10c8 9c3b
00000050: e00a ce3c 244a c7bd d7ab 853d 5b48 11bd
00000060: 2310 c1bc 25ac 313c c51f d2bc 701f dc3b
00000070: 8669 11bd 1b90 2a3c d84d 91bd 4582 9c3d
00000080: d12f e9bd 4a63 3bbd 34e0 86bb a5ae ea3c
00000090: c035 06bb 7947 26bd 5401 b4bd 5650 85bd
000000a0: 3473 d7bd 1e26 1f3d 8410 d7bb 52aa 92bc
000000b0: 92bb 6ebd b886 4dbc 3d2e 2cbd dd38 b93c
000000c0: c54d 9fbd 4373 aa3d dca9 88bd c085 0c3d
000000d0: 9f59 a4bd c534 54bd 4bde a03d 1abb 18bd
000000e0: 9a6a 333d 20a6 59bb d2df c0bc 3b89 95bd
000000f0: 91d5 4b3c fc5a 29bd 1a2d edbd 5b42 8e3d
00000100: 9230 a4bd 9fb7 4cbc 803c 60bd 7cdb 73bd
00000110: f881 4fbc 4171 81bd bbe1 7fbd d69c 8cbd
00000120: 0919 5bbd 2c7d d53c c4bf 99bd b880 80bc
00000130: 4285 94bd 1a6a 26bd ba89 8ebd e58e c7bc
00000140: f01a d7bb b49e 853c 7243 60bd 8a41 ddbc
00000150: 2b03 583d 502e a9bd c2d0 073d 939d 54bd
00000160: 98ba aa3c 4a31 b5bc 90a0 8ebc 30f8 cebb
00000170: fe99 03bd 86b2 ebbc 79d6 b1bd b846 a4bc
00000180: 02e5 5d3d 9804 a8bd 301e 2d3d e0e7 28bd
00000190: ea66 9dbd 465f e0bd cef4 dbbc 4a9b e1bc
000001a0: 2014 02bc b06b f8bb 1e20 90bd c5e0 c7bd
000001b0: a2a0 9bbd ef76 ad3c 36fa ddbd a453 3dbd
000001c0: 00a2 da3c 6faa 70bd 3aed 213d 857b ccbd
000001d0: 1a2b aebd ffcd 05bd 3f34 4fbd 7d6f cbbd
000001e0: 014e 2ebd 3563 ad3d 2095 08bd 6f5f a93d
000001f0: eea4 b3b9 0654 a03c f51a 90bc ed99 b0bd
00000200: e730 50bd 9819 b9bc 7da4 6cbd eff6 2bbd
00000210: 1e06 75bd e175 aebd bcdc 9abd 6558 803d
00000220: 9c81 86bd ada2 57bd 0eac 7e3d a0eb 59bc
00000230: 4818 e8bc 03d5 05bd 00ff f1ba 5cdc aabd
00000240: 40c5 3dbb 60c5 b1bc 484d f3bc 802f 523a
00000250: aab6 8abd 20ee a9bd 000d df3b 3d79 1bbd
00000260: b288 0d3d a1cc adbd 6aa1 edbc c8e3 90bd
00000270: 0e8b 603d 3257 6d3d d0cd b4bb 2d27 afbd
00000280: 9068 c93c 2610 79bd bca6 043d c021 f3bb
00000290: 8948 a9bd ea1c a7bd 706b a6bd ca93 243d
000002a0: 4e41 59bd 10d7 9e3c 5a0d 5f3d 255d 993d
000002b0: 3589 813d 4c8b b63c a9c5 b13d 90b3 9bbd
000002c0: 827f 1a3d 2877 b83c f3cb 2cbd addb 5bbd
000002d0: ee07 743d 4060 7b3b 4b0b 83bd ccd3 d2bc
000002e0: 6618 353d 6ab7 acbd 40db 153d 16cb 7b3d
000002f0: b07e 753c 202d 33bb a1bd ae3d 4fe8 91bd
00000300: 3e16 4c3d e24d 2d3d 599d 9fbd f077 ecbc
00000310: a83e 3c3c 7e92 2f3d ea45 6b3d f1d6 a83d
00000320: 282a adbc e063 b8bb 22af 193d 42f2 783d
00000330: 30c5 883b d954 8fbd 282e b6bc d0b6 1f3c
00000340: e26e 0d3d e813 88bc 2834 3ebd 9858 74bc
00000350: 1075 ce3b a623 7fbd 45cf 42bd da06 17bd
00000360: 827c 43bd eca8 a0bd c362 aebd 46aa 403d
00000370: b7f3 b4bd a030 56bb 0a66 81bd 82fc a2bd
00000380: f05b 783c 80b6 37bb 4c3e e53c fa19 edbc
00000390: 4083 59bb 4f24 15bd 3be6 853d e018 7ebd
000003a0: ecfb cebc 0046 933c f66f 093d 9e3d 61bd
000003b0: 30d4 7a3c 6a1f 333d 80a2 b03b c262 95bd
000003c0: 8824 fcbc 5214 3dbd db88 b23d 75e5 b23d
000003d0: 40b9 67bb c5bf 8f3d 1489 c4bc e054 093c
000003e0: 96d1 763d 28d2 1c3c 8852 6abd 7624 39bd
000003f0: 1c7c a1bd 6712 b03d 6070 9fbc 7074 4f3c

layers.2.bias f4 [128]
0.0021168338 -0.081879474 0.11760442 -0.08420625 0.06544828 -0.0063771335 0.101389736 0.35932854
-0.06954581 0.13821578 -0.06753127 0.02023762 0.39111003 0.010510299 0.007827256 -0.05413215
0.27096674 0.21841075 0.00394772 0.12604731 0.2222202 0.095624045 -0.04287197 -0.053176653
-0.07714804 0.38321733 0.036617763 0.2947083 -0.044156957 -0.018223831 0.047490228 -0.013898524
0.16474076 0.007988604 0.28768986 0.20894305 -0.06322786 0.44811246 0.026435785 0.3702365
0.23498616 -0.09266134 -0.064334475 0.029640911 0.024845624 0.30211222 -0.014653918 0.049188863
0.07995455 0.03944845 0.040985625 0.005720959 0.3272785 0.24063906 0.30741262 0.1531114
0.016813673 0.00056229654 0.2565803 0.03585223 0.24497324 0.05702244 -0.070542604 0.30978212
0.11816416 0.36808816 0.22222461 -0.040687807 -0.07072811 0.18883367 0.40357944 -0.057935175
0.17296724 0.00977075 0.05576899 0.07651929 0.068897165 -0.008276149 -0.0016402699 0.15681595
-0.029534817 0.29282364 -0.014151439 0.07501023 0.068865255 -0.033660363 0.07981135 -0.017014064
0.21389495 0.2301137 0.2814089 -0.08667217 0.39639702 -0.037893355 0.02797199 0.039416377
0.08342281 0.2755795 0.11279447 0.072708935 0.35258767 -0.0317578 0.04216235 0.1275172
0.31392497 0.2616821 0.11562045 -0.022943173 0.32390553 0.090185635 -0.034400936 0.071831085
0.35434347 0.095627874 0.23866735 0.31679043 0.09295582 0.02639757 0.21138017 0.16680345
0.083945446 0.050661862 0.23655196 0.07657303 0.0963995 -0.027102996 0.3735449 -0.09973792
00000000: 94ba 0a3b 6db0 a7bd 96da f03d 5474 acbd
00000010: bf09 863d 46f7 d0bb 6ca5 cf3d e9f9 b73e
00000020: 096e 8ebd 7088 0d3e d64d 8abd 5ec9 a53c
00000030: 933f c83e 6433 2c3c e43d 003c acb9 5dbd
00000040: 27bc 8a3e 11a7 5f3e e05b 813b 8c12 013e
00000050: b18d 633e 8ad6 c33d 859a 2fbd c3cf 59bd
00000060: cbff 9dbd 1035 c43e 82fc 153d 02e4 963e
00000070: eddd 34bd 254a 95bc 1d85 423d a3b6 63bc
00000080: cdb1 283e a2e2 023c 164c 933e 2bf5 553e
00000090: 9c7d 81bd ff6e e53e dc8f d83c a38f bd3e
000000a0: 36a0 703e 3bc5 bdbd cbc1 83bd 7fd1 f23c
000000b0: 0d89 cb3c 74ae 9a3e fd16 70bc 437a 493d
000000c0: 36bf a33d b394 213d 8be0 273d e276 bb3b
000000d0: 0c91 a73e 166a 763e 3065 9d3e 3cc9 1c3e
000000e0: d4bc 893c 1567 133a 7e5e 833e cad9 123d
000000f0: 44da 7a3e 5d90 693d a478 90bd c39b 9e3e
00000100: 0d00 f23d 0d76 bc3e d98e 633e 42a8 26bd
00000110: e6d9 90bd 9d5d 413e f7a1 ce3e 6f4d 6dbd
00000120: 531e 313e 7f15 203c 066e 643d 25b6 9c3d
00000130: f519 8d3d af98 07bc 53fe d6ba 5c94 203e
00000140: 00f3 f1bc fbec 953e 70db 67bc f79e 993d
00000150: 3a09 8d3d 73df 09bd 2274 a33d 1461 8bbc
00000160: 4707 5b3e eda2 6b3e d414 903e 2e81 b1bd
00000170: 8df4 ca3e 1036 1bbd 8425 e53c 1173 213d
00000180: 94d9 aa3d c218 8d3e c900 e73d 6ce8 943d
00000190: 5f86 b43e 7814 02bd 6eb2 2c3d de93 023e
000001a0: c6ba a03e 32fb 853e 6aca ec3d 52f3 bbbc
000001b0: f2d6 a53e 3fb3 b83d ffe7 0cbd 2d1c 933d
000001c0: 826c b53e 8cd8 c33d 3765 743e 5b32 a23e
000001d0: 9f5f be3d b73f d83c 0b74 583e 86ce 2a3e
000001e0: 97eb ab3d d082 4f3d ad3a 723e 52d2 9c3d
000001f0: 1a6d c53d 1a07 debc 4741 bf3e 6543 ccbd

layers.4.weight f4 [2, 128]
0.039071105 -0.075259194 0.4848679 0.068329714 0.4341679 -0.041169092 0.35990402 0.46895742
-0.576689 0.46436152 -0.027222209 -0.3550422 0.36152944 0.29282185 0.3627518 0.022502378
0.094443105 0.3660734 -0.012730225 0.4371062 0.48136556 0.39706728 -0.033729687 -0.040773015
-0.086801894 0.19079673 0.03341596 0.3826602 0.035020288 0.024269875 0.40439996 0.24741618
0.43476823 0.038281467 0.39573467 0.4454924 0.0054025277 0.45174867 -0.00037377593 0.3050898
0.4277724 -0.036365334 0.014953941 0.012345811 -0.0011664275 0.3771367 0.33089858 -0.045594778
0.34619105 0.3923105 -0.22086662 -0.06536035 0.3959969 0.48590532 0.39485037 0.33551273
0.44520953 0.36819965 0.2796344 -0.05490806 0.39806423 -0.06984614 -0.028094482 0.41824952
0.29266426 0.30957702 0.45193133 -0.016730433 -0.029102463 0.42170125 0.37557504 -0.075857215
0.30126154 -0.06635596 0.42021245 0.39186037 -0.016330697 0.42724478 -0.030470792 0.4362907
-0.0055191945 0.2991831 -0.057197247 -0.17526147 0.46247628 -0.05838215 0.4324449 0.03529746
-0.5970982 0.40899906 0.4781487 -0.029211132 0.4772066 -0.04678713 0.058621667 -0.01908331
0.41986904 0.33054155 0.33971643 -0.03579778 0.4309802 -6.279233e-05 0.41120884 0.41116023
0.34657323 0.37379247 0.30963153 0.02921077 0.3805796 0.3955278 -0.008034102 -0.6996106
0.3703936 0.33376616 0.27991778 0.36076105 0.3387672 0.34615016 0.43642628 0.44131765
0.29833788 -0.069129825 0.28958878 0.45693386 0.27978027 -0.08683506 0.37357152 0.057122357
-0.07322572 -0.08251747 0.3711702 -0.08007622 0.25063112 -0.036062937 0.26663664 0.4729079
-0.04330992 0.25824016 -0.046707463 0.18561795 0.2584111 0.36469644 0.3013591 0.0081518665
0.4882993 0.41482252 -0.025645085 0.34963644 0.48347452 0.41966057 0.04089595 0.009559782
-0.04590128 0.46072647 0.012204673 0.50281185 0.06129659 0.020285893 0.27091885 0.4123852
0.295311 -0.044187356 0.4176365 0.35679024 -0.08813409 0.531372 -0.02615946 0.4246719
0.32681218 -0.05868695 -0.0060210004 -0.07366756 -0.065657474 0.41144815 0.39015684 0.04677879
0.39218366 0.2395157 -0.49193883 -0.07682173 0.26952228 0.42450598 0.17307588 0.44123372
0.2947992 0.45542645 0.4820219 -0.0052010613 0.32485646 -0.04325819 0.0031224864 0.1708873
0.38936847 0.43176463 0.2500136 0.0072128503 -0.003749419 0.33347532 0.39456135 -0.056428034
0.46930498 -0.0058013713 0.28443626 0.359699 0.03213815 0.44547254 -0.029618619 0.42022762
-0.015373447 0.39765397 0.08975004 -0.48944506 0.20662113 0.3280327 0.25012967 -0.02807352
-0.09204326 0.24948603 0.33011755 -0.014625108 0.46103638 0.02240948 -0.019266829 -0.4200381
0.32663536 0.43873283 0.30809727 0.02868019 0.39223808 -0.036565796 0.33446902 0.35186106
0.24581236 0.3403877 0.39768478 -0.04142586 0.48283648 0.36061764 -0.043578696 0.07167595
0.43315116 0.31353202 0.48333165 0.36882246 0.3904959 0.38376358 0.21260662 0.29436246
0.5515191 -0.01341749 0.45713088 0.20692489 0.3735893 -0.01292073 0.5393338 -0.011253461
00000000: 0609 203d 7e21 9abd 9b40 f83e 73f0 8b3d
00000010: 414b de3e eca0 28bd 5745 b83e 301b f03e
00000020: e4a1 13bf cbc0 ed3e 1c01 dfbc 17c8 b5be
00000030: 631a b93e bfec 953e 9bba b93e e856 b83c
00000040: 636b c13d f96d bb3e 6f92 50bc 62cc df3e
00000050: 8c75 f63e 674c cb3e 2428 0abd 9b01 27bd
00000060: 31c5 b1bd 3860 433e 2cdf 083d 0aec c33e
00000070: 6f71 0f3d 9ed1 c63c 830d cf3e ab5a 7d3e
00000080: f199 de3e 07cd 1c3d bc9d ca3e 9417 e43e
00000090: b007 b13b 9a4b e73e 5bf7 c3b9 bb34 9c3e
000000a0: fc04 db3e d1f3 14bd 6001 753c 1646 4a3c
000000b0: d0e2 98ba 1018 c13e 8a6b a93e 97c1 3abd
000000c0: f43f b13e ecdc c83e dc2a 62be a6db 85bd
000000d0: 1bc0 ca3e 95c8 f83e d429 ca3e 53c8 ab3e
000000e0: 81f2 e33e aa84 bc3e 3d2c 8f3e 46e7 60bd
000000f0: 13cf cb3e 7e0b 8fbd 6626 e6bc cd24 d63e
00000100: 17d8 953e e180 9e3e 8b63 e73e 430e 89bc
00000110: 4a68 eebc 3ae9 d73e 5f4b c03e 075b 9bbd
00000120: f43e 9a3e a2e5 87bd 1626 d73e eca1 c83e
00000130: f4c7 85bc d4bf da3e e29d f9bc 7f61 df3e
00000140: 5cda b4bb 872e 993e a947 6abd be77 33be
00000150: b1c9 ec3e 1f22 6fbd 6b69 dd3e 1294 103d
00000160: 6ddb 18bf 5368 d13e e8cf f43e 2f4c efbc
00000170: 6c54 f43e dda3 3fbd 461d 703d 9a54 9cbc
00000180: 13f9 d63e be3c a93e 50ef ad3e b1a0 12bd
00000190: 70a9 dc3e 60af 83b8 f789 d23e 9883 d23e
000001a0: 0c72 b13e ba61 bf3e 0688 9e3e 6d4b ef3c
000001b0: 54db c23e 9f82 ca3e 77a1 03bc ae19 33bf
000001c0: 3ba4 bd3e 66e3 aa3e 6251 8f3e acb5 b83e
000001d0: e572 ad3e 983a b13e 4473 df3e 63f4 e13e
000001e0: bebf 983e f093 8dbd fb44 943e 3cf3 e93e
000001f0: 5c3f 8f3e 94d6 b1bd c444 bf3e 22f9 693d
00000200: 5ef7 95bd ebfe a8bd 050a be3e 00ff a3bd
00000210: b952 803e bbb6 13bd 9984 883e fc20 f23e
00000220: be65 31bd 0e38 843e 5350 3fbd a212 3e3e
00000230: 764e 843e 7eb9 ba3e bd4b 9a3e 688f 053c
00000240: 5e02 fa3e 9e63 d43e a415 d2bc 8c03 b33e
00000250: f989 f73e c0dd d63e 8382 273d a2a0 1c3c
00000260: fb02 3cbd 57e4 eb3e 1cf6 473c 47b8 003f
00000270: 2212 7b3d 9a2e a63c e0b5 8a3e 2724 d33e
00000280: 0133 973e cdfd 34bd 74d4 d53e 36ad b63e
00000290: a57f b4bd ff07 083f 5d4c d6bc 986e d93e
000002a0: ed53 a73e ba61 70bd d04b c5bb 05df 96bd
000002b0: 6d77 86bd 55a9 d23e a3c2 c73e 1e9b 3f3d
000002c0: 4ccc c83e 9b43 753e 68df fbbe b654 9dbd
000002d0: d3fe 893e d958 d93e ce3a 313e 63e9 e13e
000002e0: ecef 963e a82d e93e 93cb f63e aa6d aabb
000002f0: 9653 a63e 802f 31bd a1a2 4c3b 15fd 2e3e
00000300: 4e5b c73e 4110 dd3e c801 803e c659 ec3b
00000310: d0b8 75bb 47bd aa3e f203 ca3e 1521 67bd
00000320: be48 f03e 6e19 bebb a1a1 913e 782a b83e
00000330: 4ba3 033d fa14 e43e bfa2 f2bc 1328 d73e
00000340: e9e0 7bbc 4d99 cb3e dece b73d 8b98 fabe
00000350: 7d94 533e e7f3 a73e ff10 803e 70fa e5bc
00000360: 2d81 bcbd 4479 7f3e 2b05 a93e 269e 6fbc
00000370: f60c ec3e 1694 b73c 78d5 9dbc 3c0f d7be
00000380: c03c a73e 97a1 e03e edbe 9d3e b8f2 ea3c
00000390: 6ed3 c83e 04c6 15bd 863f ab3e 2227 b43e
000003a0: 3cb6 7b3e 4c47 ae3e 579d cb3e 2aae 29bd
000003b0: 5836 f73e e0a2 b83e 937f 32bd d7ca 923d
000003c0: fdc5 dd3e 4587 a03e 3f77 f73e 4cd6 bc3e
000003d0: 14ef c73e a97c c43e 8db5 593e adb6 963e
000003e0: 5b30 0d3f 08d5 5bbc 0f0d ea3e 1ee4 533e
000003f0: 1947 bf3e 78b1 53bc c811 0a3f 7060 38bc

layers.4.bias f4 [2]
0.21813798 0.28174713
00000000: 905f 5f3e 2941 903e
