results/dqn_cartpole/model.pt (torch, 72727 bytes, 6 tensors)

weight f4 [128, 4]
0	0x3f75e1e5	0.9604781
1	0x3f215c3d	0.6303137
2	0xbebc3adf	-0.36763665
3	0x3e35a0f7	0.17737184
4	0x3f196f68	0.5993562
5	0xbe7e5aba	-0.24839297
6	0x3e4abd5d	0.19798799
7	0x3dd1fe63	0.102535985
8	0x3eb70894	0.35748732
9	0xbed0ed7f	-0.40806195
10	0xbcdaa204	-0.026688583
11	0x3c2e1bc7	0.01062674
12	0xbe920bf6	-0.2852475
13	0xbebaecec	-0.36508882
14	0x3e89ff0d	0.269524
15	0xbe319306	-0.17341241
16	0xbdb316c2	-0.08744575
17	0x3e25e645	0.16201122
18	0xbe083ea7	-0.1330515
19	0x3e9f8869	0.3115876
20	0x3f3b2fc8	0.73119783
21	0x3f733f55	0.9501851
22	0xbe66ce5d	-0.22539659
23	0xbf036b41	-0.5133553
24	0xbdd9d2c7	-0.10635906
25	0xbebb431c	-0.36574638
26	0x3e095523	0.13411383
27	0xbe9fa02b	-0.31176886
28	0x3ef0fe1e	0.47068876
29	0x3eab4ecc	0.33458555
30	0x3eb31364	0.3497573
31	0x3ef27388	0.47353768
32	0x3e566737	0.20937811
33	0x3f549046	0.83032644
34	0x3f348279	0.70511585
35	0x3e1d6f66	0.15374526
36	0xbe61af95	-0.22039635
37	0x3e8397c4	0.25701725
38	0x3f0a7e53	0.54099005
39	0xbe1117b4	-0.14169198
40	0xbe9427f2	-0.28936726
41	0x3dd7d8da	0.10539408
42	0x3d120dbd	0.035657633
43	0x3ec8eb93	0.3924223
44	0xbdc6b605	-0.09702686
45	0x3e327f6b	0.17431419
46	0x3e0ee4a9	0.13954414
47	0x3e711206	0.23542032
48	0xbe85324d	-0.2601494
49	0xbeb5a16f	-0.35474727
50	0xbfab7cf2	-1.3397505
51	0xbf6aa973	-0.9166481
52	0x3e9649cd	0.2935318
53	0x3e0e4688	0.13894093
54	0x3edacb37	0.42733166
55	0xbd832a0c	-0.06404504
56	0x3ed8cb26	0.4234249
57	0xbdce8773	-0.10084429
58	0x3b0f7acc	0.002189326
59	0xbd793346	-0.060839914
60	0xbe7bbbe2	-0.2458339
61	0x3e33baf3	0.17551784
62	0x3e9716b8	0.2950952
63	0x3e3bcce5	0.1833988
64	0x3dd46e66	0.10372619
65	0xbdd33b61	-0.1031406
66	0xbeec9209	-0.46205166
67	0x3e9c3985	0.30512634
68	0xbc6d2732	-0.014474677
69	0xbe0c37f0	-0.13693213
70	0x3df30930	0.11866987
71	0x3e9d94b9	0.3077753
72	0x3ebb1a3f	0.36543462
73	0x3dd05b43	0.10173657
74	0xbe8514f4	-0.25992548
75	0x3eebf603	0.4608613
76	0x3ded2329	0.11578972
77	0x3d16fef2	0.03686423
78	0x3fb844b7	1.439597
79	0x3f1fb882	0.6239091
80	0x3d13fd00	0.03612995
81	0xbde49820	-0.11161828
82	0x3eaf5364	0.3424331
83	0xbd8b88d0	-0.06813204
84	0x3ef6110f	0.4805989
85	0x3da9fb9f	0.08299946
86	0x3d9dc2f5	0.07703201
87	0x3e420f7e	0.18951222
88	0x3ed0fba0	0.40816975
89	0xbea983f9	-0.331085
90	0xbe9c8d70	-0.30576658
91	0x3894c5d8	7.094041e-05
92	0xbe3f3298	-0.18671644
93	0xbe548aad	-0.20756026
94	0x3ec0215b	0.37525448
95	0x3d39573f	0.04524922
96	0xbfaf4d45	-1.3695456
97	0xbeafc01d	-0.34326258
98	0x3f8828a5	1.0637404
99	0x3f4dd521	0.80403334
100	0xbeff8853	-0.49908695
101	0xbeb342e2	-0.35011965
102	0xbfa92306	-1.3213813
103	0xbf74a6ca	-0.95567
104	0xbe90257a	-0.28153592
105	0x3e01ffe4	0.12695271
106	0x3ea650a7	0.32483408
107	0xbdc4c857	-0.09608524
108	0x3f2791c6	0.6545681
109	0x3f70885f	0.93958086
110	0x3f97195d	1.1804615
111	0x3e5520c1	0.20813276
112	0x3f0fa07c	0.56104255
113	0x3edff658	0.43742633
114	0x3e17a445	0.14808758
115	0x3e12abea	0.14323393
116	0x3eef18e7	0.46698686
117	0x3e0343b0	0.1281879
118	0xbe416f12	-0.18890026
119	0xbdfc3554	-0.12314859
120	0x3f23a150	0.6391802
121	0xbe9beebd	-0.3045558
122	0x3eba18dd	0.36347094
123	0xbde8e800	-0.113723755
124	0xbe968830	-0.29400778
125	0x3e54cc0a	0.2078096
126	0x3f3d4a7c	0.7394178
127	0x3f7d987c	0.990608
128	0x3ee623ef	0.4494929
129	0x3f5cf096	0.86304605
130	0xbfa24e9f	-1.2680243
131	0xbf1d167e	-0.61362445
132	0x3e3e697e	0.1859493
133	0x3ed7b980	0.42133713
134	0x3f138b73	0.5763466
135	0x3e26bd75	0.1628321
136	0xbbef8400	-0.007309437
137	0x3dd93f80	0.10607815
138	0x3e7af4e0	0.24507475
139	0x3e2bc174	0.16773015
140	0x3e8ceef0	0.27526045
141	0x3f0ddc91	0.5541468
142	0x3f9d07a8	1.2267962
143	0x3f72d4c2	0.9485589
144	0x3e00e81c	0.12588543
145	0x3efd35ba	0.49455053
146	0xbea24ba6	-0.3169834
147	0x3ef20266	0.47267455
148	0x3f58e198	0.8471923
149	0x3f919e99	1.1376525
150	0x3f564306	0.8369602
151	0x3f934fa5	1.150868
152	0xbde25f58	-0.110533416
153	0xbe372a7c	-0.178873
154	0x3e5130ee	0.20428821
155	0x3c3932ec	0.011303645
156	0x3ebcc09e	0.36865705
157	0x3d745e41	0.0596602
158	0xbf9155a0	-1.1354256
159	0xbf3a1cf8	-0.7270045
160	0xbdebaa56	-0.115070984
161	0xbdbcdcf8	-0.09221834
162	0x3eebcb3c	0.46053493
163	0x3d8eed6d	0.06978879
164	0xbe0550d8	-0.1301912
165	0x3decb738	0.11558384
166	0xbef3f7cc	-0.47649992
167	0x3e1af704	0.15133291
168	0x3e96ead0	0.29476023
169	0x3f146931	0.5797301
170	0x3e9f96d7	0.3116977
171	0xbdd49e9a	-0.10381813
172	0xbe2ffa3b	-0.17185299
173	0xbccc9fde	-0.024978574
174	0x3fa08f16	1.2543666
175	0x3f13624a	0.5757185
176	0xbe83f823	-0.2577525
177	0x3e4dc568	0.20094836
178	0xbe22f192	-0.15912464
179	0xbe1f3d91	-0.1555083
180	0xbe2258cd	-0.15854187
181	0x3ebaf158	0.36512256
182	0xbd93feaf	-0.072263114
183	0x3daa8188	0.083254874
184	0x3e97271c	0.29522026
185	0x3f0dfb0e	0.55461204
186	0x3f9c58df	1.2214621
187	0x3f7b3250	0.98123646
188	0x3e8335bd	0.25626937
189	0x3c2d2ea1	0.010570199
190	0xbde4da3e	-0.11174439
191	0x3e68d8bc	0.22738928
192	0xbd4c503b	-0.0498812
193	0xbf01ef17	-0.5075545
194	0x3ed69d94	0.41917098
195	0xbe6d5915	-0.23178513
196	0x3edddce4	0.4333259
197	0x3de54364	0.11194494
198	0x3ef08523	0.46976575
199	0xbdd61556	-0.10453288
200	0x3f265519	0.649736
201	0x3ed50ee4	0.41612923
202	0x3ef72d7f	0.48276898
203	0x3e6d544d	0.2317669
204	0x3e63c834	0.2224434
205	0x3f09b18a	0.5378653
206	0x3f169ea9	0.58835846
207	0x3e97e441	0.2966633
208	0x3ea4c055	0.32177988
209	0xbe530e82	-0.20611003
210	0xbfcbe931	-1.5930539
211	0xbf6aaf54	-0.9167378
212	0x3f153ebe	0.5829886
213	0xbc1bdb77	-0.009512774
214	0x3edd1b00	0.43184662
215	0x3d81d203	0.06338885
216	0xbd9ab3f5	-0.07553855
217	0xbecaf9f7	-0.39643833
218	0x3ef24c87	0.4732401
219	0x3f474d11	0.7785197
220	0x3dd10335	0.1020569
221	0xbbd09efc	-0.0063666087
222	0x3f3b00d5	0.73048145
223	0x3f1d991f	0.6156177
224	0x3e1aadb3	0.15105323
225	0x3e4553c9	0.19270243
226	0x3ebb01d5	0.36524835
227	0x3ceef846	0.02917112
228	0x3e09ae00	0.13445282
229	0xbe279715	-0.16366227
230	0x3e8cc845	0.27496544
231	0x3e6f4dde	0.23369548
232	0xbddb2439	-0.10700268
233	0xbe6e9d44	-0.2330218
234	0xbee46b53	-0.44613132
235	0x3dc07f16	0.0939924
236	0xbf4798f4	-0.7796776
237	0xbe843ca8	-0.25827527
238	0xbfecfb5a	-1.8514206
239	0xbf5c77a5	-0.86120063
240	0x3f418d83	0.75606555
241	0x3f6bf4ea	0.92170584
242	0x3ee3da92	0.44502693
243	0x3ef6eab1	0.4822593
244	0xbe8eaeaf	-0.27867648
245	0x3d3f54cf	0.04671174
246	0xbe822aeb	-0.2542337
247	0x3d3dad8d	0.04630809
248	0x3ea89f3e	0.32933992
249	0xbe31d408	-0.1736604
250	0x3c37da01	0.01122141
251	0xbe82122d	-0.25404492
252	0x3f963702	1.1735537
253	0x3eb92a2e	0.36164993
254	0xbf466d65	-0.7751067
255	0x3dcf33dd	0.10117314

bias f4 [128]
0	0x3ec3f02b	0.3826917
1	0x3f0b34d7	0.543775
2	0x3f0ea1be	0.5571555
3	0x3edda82b	0.43292364
4	0x3f0340f1	0.5127097
5	0x3d9c2c00	0.0762558
6	0x3f1ea711	0.61973673
7	0x3f358f90	0.70922184
8	0x3e6d8a87	0.23197375
9	0x3f259699	0.6468292
10	0x3f4a64fe	0.7906035
11	0x3ec72dd5	0.38902155
12	0x3ea5b8e7	0.32367632
13	0x3f06510f	0.52467436
14	0x3eb071fc	0.34461963
15	0x3f259a38	0.64688444
16	0x3f420282	0.75785077
17	0x3ef36472	0.4753757
18	0x3f5904f7	0.847732
19	0x3eb548af	0.35407016
20	0xbefcace2	-0.4935065
21	0x3f2bc011	0.67089945
22	0x3f197a36	0.59952104
23	0x3f094e0b	0.5363471
24	0xbd1de879	-0.03855178
25	0x3e1ddd11	0.15416361
26	0x3f0f8b08	0.5607152
27	0x3ec85fc9	0.39135578
28	0x3f0abf96	0.54198587
29	0x3f482177	0.78176063
30	0x3f0ad3eb	0.5422961
31	0x3e75c88a	0.24002281
32	0x3e2807c5	0.16409214
33	0x3ed9f596	0.4257018
34	0xbea6b684	-0.32561123
35	0x3ef823d8	0.48464847
36	0x3f1c600c	0.61084056
37	0xbe3ac006	-0.18237314
38	0x3ed62a2c	0.4182905
39	0x3efe5c40	0.49679756
40	0x3ebaa952	0.36457306
41	0xbe472b44	-0.19450098
42	0x3f2b9618	0.670259
43	0x3ef46906	0.47736377
44	0x3f428372	0.7598182
45	0x3f11bda6	0.56930006
46	0xbe0e1efe	-0.1387901
47	0x3eebcf88	0.4605677
48	0x3f122f30	0.5710325
49	0x3f1a8388	0.6035695
50	0x3f501337	0.8127932
51	0x3f2c47de	0.6729716
52	0x3e907a88	0.28218484
53	0x3ee08559	0.43851736
54	0x3baafc6b	0.005218079
55	0x3f0cd92a	0.55018866
56	0x3ece9718	0.4034965
57	0x3f5aa066	0.85401
58	0x3ef988ca	0.48737174
59	0x3e91e49b	0.28494725
60	0xbe01f94a	-0.12692752
61	0x3ebdc57b	0.37064728
62	0x3f20ef55	0.6286519
63	0x3eca3e9a	0.39500886
64	0x3ef17376	0.47158402
65	0x3e117755	0.14205678
66	0xbe08a4ce	-0.13344118
67	0x3f08e02f	0.53467077
68	0x3ecc8346	0.39943904
69	0x3f417f96	0.75585306
70	0x3ed3c966	0.41364592
71	0x3f2fb893	0.6864101
72	0x3ee888ce	0.45416874
73	0x3f25c178	0.64748335
74	0x3f01b4b2	0.50666344
75	0xbe845d40	-0.25852394
76	0x3ee387fb	0.44439682
77	0x3f20ce9c	0.6281526
78	0x3f34a40a	0.70562804
79	0x3f52d006	0.8234867
80	0x3ef9c764	0.48784935
81	0x3f36c0ad	0.7138775
82	0x3eeeb9e5	0.466262
83	0xbef3096c	-0.47468126
84	0x3e9c7331	0.30556634
85	0x3f0f4e19	0.5597854
86	0x3f358a1d	0.7091387
87	0x3f12ebf8	0.5739131
88	0x3ecbad04	0.39780438
89	0x3eafc565	0.34330288
90	0x3e5a2505	0.21303184
91	0xbf0b6ac8	-0.5445981
92	0x3f15d9ae	0.5853528
93	0x3f2b2b69	0.66863114
94	0xbef79556	-0.48356122
95	0x3f2bc0ce	0.6709107
96	0x3ed1aa60	0.40950298
97	0x3f20a08d	0.6274498
98	0x3eb80474	0.35940897
99	0x3f07989d	0.52967244
100	0xbed3f57a	-0.4139822
101	0x3f20224b	0.62552327
102	0x3ee161f2	0.4402004
103	0x3ee71e70	0.4514041
104	0x3edb7159	0.42859915
105	0xbe23a9a4	-0.15982682
106	0x3f3f5ca1	0.74750715
107	0x3f152b72	0.5826942
108	0x3f18963d	0.59604245
109	0x3ea5b284	0.3236276
110	0x3e5f48a5	0.21805055
111	0x3ec2b330	0.38027334
112	0x3ead2115	0.33814302
113	0x3f401c1b	0.75042886
114	0x3f14d472	0.58136666
115	0x3e94eb56	0.29085797
116	0x3e9a6a8e	0.3015942
117	0x3f200139	0.62501866
118	0x3f059a68	0.5218873
119	0x3ee17177	0.4403188
120	0x3e9ecbd1	0.31014875
121	0x3f62c4c8	0.88581514
122	0x3f02c4ad	0.51081353
123	0x3efcc92b	0.4937223
124	0x3f5578ad	0.8338726
125	0x3eb1916e	0.34681267
126	0x3f117b17	0.56828445
127	0x3eeae8bf	0.45880696

weight f4 [128, 128]
0	0xbe53a7d9	-0.20669498
1	0x3d76a702	0.060217865
2	0x3e3fe47e	0.18739507
3	0x3de1fa43	0.11034062
4	0x3e5cd495	0.21565469
5	0xbe69b2b5	-0.22822078
6	0x3e7825bf	0.24233149
7	0x3dd3e8dc	0.10347149
8	0x3de9c7fc	0.11415097
9	0x3e3e482e	0.18582222
10	0x3de768f1	0.11299313
11	0x3d9330ca	0.0718704
12	0xbf585f3a	-0.84520304
13	0x3e814a5d	0.25252047
14	0x3e85ce37	0.26133892
15	0x3e8ab472	0.27090794
16	0x3e60996d	0.21933527
17	0xbd87aaf0	-0.066244006
18	0x3e11eff0	0.14251685
19	0xbf3eb6e0	-0.74497795
20	0xbd0b1bfc	-0.033962235
21	0x3e7d6a05	0.24747474
22	0x3e090437	0.13380514
23	0x3e9e0db9	0.30869845
24	0xbeec5911	-0.46161702
25	0xbf3a9af3	-0.72892684
26	0x3e828481	0.25491717
27	0xbd8d6c6a	-0.06905444
28	0x3e4b0b94	0.19828635
29	0x3e8d958d	0.2765316
30	0x3e64411d	0.22290464
31	0xbef81e95	-0.48460832
32	0xbe9573f3	-0.29190025
33	0x3dca893c	0.09889457
34	0x3d832663	0.06403806
35	0xbe7d0942	-0.24710563
36	0x3e2bd8da	0.16781941
37	0xbe9d8c43	-0.30771074
38	0x3b05f240	0.0020438582
39	0xbf37b5da	-0.7176186
40	0x3e6085c1	0.21926023
41	0xbd969b6d	-0.07353864
42	0x3e03f150	0.12885022
43	0xbf0fa41e	-0.561098
44	0x3e9bfc32	0.30465847
45	0x3e3a2953	0.18179826
46	0xbf325519	-0.696611
47	0x3df59258	0.119908035
48	0x3e7156e8	0.23568308
49	0x3e80af58	0.25133777
50	0x3e82d172	0.2555042
51	0x3e111ea8	0.1417185
52	0xbf39e68c	-0.7261741
53	0xbe1f406d	-0.1555192
54	0xbec5e096	-0.38647908
55	0xbf04808c	-0.51758647
56	0x3e8e1491	0.27750066
57	0x3ce8890e	0.028385665
58	0x3e546030	0.20739818
59	0xbf06614c	-0.52492213
60	0xbdbddbd9	-0.09270448
61	0x3e5522ba	0.20814028
62	0x3e40d154	0.18829852
63	0xbe8b0ac9	-0.27156666
64	0xbe143edf	-0.14477108
65	0xbe98dc30	-0.2985549
66	0xbecded4e	-0.40220112
67	0x3e967d5d	0.2939252
68	0x3ea156b1	0.31511453
69	0x3e4dd22a	0.20099702
70	0x3e02232c	0.1270873
71	0xbf11fa0c	-0.57022166
72	0xbebf443c	-0.37356746
73	0x3d2dc36a	0.04242269
74	0x3e23e6bd	0.16005988
75	0xbf638c87	-0.888863
76	0xbc1c2a58	-0.00953158
77	0x3e751f3c	0.23937696
78	0x3d87b40c	0.06626138
79	0x3e85082f	0.25982806
80	0x3e60ef48	0.21966279
81	0x3b9c0873	0.0047617494
82	0x3e6e1840	0.23251438
83	0xbdcff3c9	-0.1015392
84	0xbecec20f	-0.4038243
85	0xbe810078	-0.2519567
86	0x3d818e1a	0.06325932
87	0x3e4c8492	0.19972447
88	0x3e2f29fd	0.17105861
89	0x3e91606a	0.2839387
90	0xbefe9f9f	-0.49731156
91	0xbc074a5f	-0.008257478
92	0x3e55e4db	0.20888083
93	0x3e07e240	0.13269901
94	0xbd814d01	-0.063135155
95	0x3ddcdd47	0.10784393
96	0xbef4a96b	-0.47785506
97	0x3e4bbbe1	0.19895889
98	0xbffebc44	-1.9901204
99	0x3e287b40	0.16453266
100	0xbd0aac87	-0.03385594
101	0x3d5d7cfc	0.054074273
102	0x3e363303	0.17792897
103	0xbf4491f4	-0.76785207
104	0xbd26bef0	-0.040709436
105	0x3c6b189c	0.014349129
106	0x3ea6d7a4	0.32586396
107	0x3e021fe8	0.12707484
108	0x3d478a90	0.048716128
109	0x3e300d58	0.1719259
110	0xbf375c2a	-0.71625006
111	0x3e934bce	0.28768772
112	0x3e0874bc	0.1332578
113	0x3e52b27f	0.20575903
114	0x3e602e91	0.21892764
115	0xbd8beff6	-0.06832878
116	0xbf0f3c09	-0.5595098
117	0x3e34ffb3	0.17675667
118	0x3e5d2f95	0.21600182
119	0xbd993c28	-0.07482177
120	0xbdc72c16	-0.097252056
121	0xbe97e9f2	-0.29670674
122	0x3e3c71cd	0.18402787
123	0x3d9b4597	0.075816326
124	0x3e771ed6	0.24132857
125	0x3df28dbc	0.1184344
126	0xbbd1bf5f	-0.006400987
127	0xbf0ea7fa	-0.5572506
128	0x3da86d1d	0.08223937
129	0xbd972c7a	-0.0738153
130	0xbd6f33e0	-0.05839908
131	0xbd808d80	-0.06276989
132	0x3d905723	0.0704787
133	0xbca31bc4	-0.0199107
134	0xbd3c635e	-0.0459932
135	0x3ce3e0cc	0.027817152
136	0x3d805a5b	0.06267234
137	0x3da07355	0.07834498
138	0x3bcdbd90	0.006278701
139	0x3d6b86e6	0.057501696
140	0x3db3141d	0.08744071
141	0xbb386420	-0.002813585
142	0xbd34223f	-0.043977972
143	0xbd485cd1	-0.04891664
144	0xbd41c141	-0.047303442
145	0x3c337a00	0.01095438
146	0x3d5835d6	0.052785717
147	0xbdb2030f	-0.0869199
148	0xbdb4aab7	-0.08821624
149	0x3a19a780	0.0005861446
150	0x3a935d80	0.0011243075
151	0x3ca18618	0.019717261
152	0xbce42782	-0.02785087
153	0xbd1d2be6	-0.038371943
154	0xbcb3c4ac	-0.021944366
155	0xbd864448	-0.06555992
156	0x3da4cfd1	0.0804745
157	0x3d9b99e3	0.07597711
158	0x3d897077	0.06710904
159	0xbc879ea8	-0.016555145
160	0x3d987a2f	0.0744518
161	0xbc1a8758	-0.0094316825
162	0x3db09363	0.08621862
163	0xbc96091c	-0.01831489
164	0xbd7332ba	-0.05937455
165	0x3c7bc120	0.015365869
166	0x3cc3fcd0	0.023924261
167	0x3cf58394	0.029969968
168	0x3cfb3690	0.030665666
169	0xbcddf22c	-0.027093016
170	0xbdb4135d	-0.08792756
171	0x3d8eb207	0.0696755
172	0xbd8c027b	-0.068364106
173	0x3d950b0b	0.07277497
174	0xbd351498	-0.044209093
175	0xbc80acb4	-0.015707351
176	0x3be33530	0.0069338307
177	0xbd2faf05	-0.04289152
178	0xbd146cbc	-0.03623651
179	0xbd215d6e	-0.039395742
180	0x3c8a0444	0.016847737
181	0x3d4ef852	0.050529785
182	0x3d811143	0.063021205
183	0x3d8869e3	0.06660821
184	0x3c592338	0.013253026
185	0x3d9ab46b	0.07553943
186	0xbcb784ec	-0.02240225
187	0x3cef68f8	0.029224858
188	0xbd5e53cf	-0.054279145
189	0x3d1396de	0.03603255
190	0xbd682ac7	-0.05668142
191	0xbb801530	-0.0039087757
192	0xbcecae2a	-0.028891642
193	0x3c8083b0	0.015687793
194	0x3cd7f8a8	0.026363686
195	0x3d4d686e	0.05014842
196	0xbd7fec15	-0.062481005
197	0xbd9ff1b5	-0.07809774
198	0x3daa0919	0.083025165
199	0x3b8be3e0	0.004269108
200	0xbd6d0e5e	-0.05787503
201	0xbd2f425b	-0.04278789
202	0xbd9a569c	-0.07536051
203	0x3c8518fc	0.016247265
204	0x3c30dee0	0.010795325
205	0x3d7a2c36	0.06107732
206	0xbd471822	-0.048607
207	0xbcf108b4	-0.029423095
208	0xbd127ba9	-0.035762463
209	0xbda1129c	-0.078648776
210	0xbda21cb6	-0.079156324
211	0xbdb438db	-0.08799907
212	0x3d8b8977	0.06813329
213	0x3d2849b6	0.04108592
214	0x3ce9ddd8	0.028548166
215	0x3ab3cdc0	0.0013717934
216	0x3c628840	0.01382643
217	0xbcc52cd8	-0.024069235
218	0xbd279a33	-0.04091854
219	0x3d9c23c1	0.07624007
220	0xbc3d1a98	-0.011541985
221	0xbd5509b5	-0.05201121
222	0xbd78e72c	-0.060767338
223	0xbca0dbf0	-0.019636124
224	0xbce37b26	-0.027768683
225	0x3d2d06ca	0.042242803
226	0x3d09cc62	0.03364218
227	0xbd80ff81	-0.062987335
228	0xbd1a966f	-0.03774112
229	0xbc3cb2b8	-0.011517219
230	0x3d7b92b2	0.061419196
231	0xbd8ac51f	-0.06775879
232	0xbc894424	-0.016756125
233	0xbd637008	-0.055526763
234	0x3c9d16d8	0.019175932
235	0x3c468d00	0.012118578
236	0xbd9acd58	-0.075586975
237	0xbd1d30a9	-0.038376484
238	0x3c6493c0	0.013951242
239	0xbd23c0f2	-0.03997893
240	0x3d7177c6	0.058952115
241	0xbd8975e3	-0.06711938
242	0xbcab9b9c	-0.020948224
243	0x3d43ceda	0.04780469
244	0xbdad908d	-0.084748365
245	0xbd6cb460	-0.057789207
246	0x3d1ca06e	0.038238935
247	0xbd98ec7b	-0.0746698
248	0xbd780a82	-0.060556896
249	0xbd87789f	-0.066148035
250	0xbcd19344	-0.025582917
251	0x3cf0cebc	0.029395454
252	0xbd2fb07a	-0.04289291
253	0x3d0d4cbc	0.034497008
254	0x3c733090	0.014843121
255	0xbce9ba72	-0.028531287

bias f4 [128]
0	0x3dc63e77	0.09679883
1	0xbd9ef556	-0.07761638
2	0x3e4ee2f3	0.20203762
3	0xbdf58018	-0.119873226
4	0xbd2d2827	-0.04227462
5	0x3e177793	0.14791708
6	0x3c44a938	0.0120032355
7	0x3e825aef	0.25460002
8	0x3e278cbe	0.16362283
9	0xbcd2e2a3	-0.025742834
10	0x3c99a751	0.01875654
11	0x3ea07422	0.31338602
12	0x3e2c9166	0.1685234
13	0x3e6c1baa	0.23057428
14	0x3db0deef	0.08636271
15	0x3d2d2272	0.042269178
16	0x3e37c825	0.17947443
17	0x3e57b379	0.21064557
18	0xbd4273ce	-0.04747372
19	0xbdb38862	-0.08766247
20	0xbd3991a7	-0.04530492
21	0x3cb81f24	0.022475787
22	0xbd820911	-0.063493855
23	0x3e791719	0.24325217
24	0x3cc20a03	0.023686415
25	0x3e1df362	0.15424874
26	0xbd65b566	-0.0560812
27	0x3e5ac6b5	0.21364863
28	0x3e2b6dc4	0.16741091
29	0x3e370177	0.17871653
30	0x3eb0bdf4	0.34519923
31	0x3dec1106	0.115266845
32	0x3e1293af	0.1431415
33	0x3d7cf45f	0.061756488
34	0x3ea3ca04	0.31990063
35	0xbdadae48	-0.08480507
36	0x3e2d8380	0.16944695
37	0x3d4faad0	0.05070001
38	0x3ee144c9	0.4399779
39	0x3e401198	0.18756711
40	0x3ec06461	0.37576583
41	0xbdaed48e	-0.08536635
42	0x3ed9d5ca	0.4254592
43	0x3e7d622c	0.24744481
44	0x3e608d5b	0.21928923
45	0x3e2ab759	0.16671504
46	0xbc6f1a90	-0.014593735
47	0x3e3efb74	0.18650609
48	0x3e07f7be	0.132781
49	0xbdc824c8	-0.097726405
50	0xbdaf7278	-0.08566755
51	0x3dec1360	0.11527133
52	0x3e80e001	0.251709
53	0x3e92b01c	0.28649986
54	0xbd6de597	-0.058080282
55	0x3e2884cd	0.1645691
56	0x3e4e7113	0.20160322
57	0x3d559082	0.052139767
58	0x3e9d94af	0.307775
59	0x3ea0aee9	0.31383446
60	0x3ea306e8	0.31841207
61	0xbcc283fc	-0.023744576
62	0x3e3f2d0b	0.18669526
63	0x3e806069	0.25073555
64	0xbdc9b0a6	-0.09848146
65	0x3e864af7	0.2622907
66	0x3e4eab5b	0.20182554
67	0x3e1e6ba5	0.1547075
68	0x3d7fb351	0.06242687
69	0x3c8efe0f	0.017455129
70	0x3e0d3087	0.13788043
71	0x3eae36df	0.34026238
72	0xbdd10920	-0.102068186
73	0x3e4d8c9e	0.20073172
74	0x3e898623	0.2686015
75	0x3e331497	0.17488323
76	0x3e164c03	0.14677434
77	0x3e8ca168	0.27466893
78	0xbcdf96b6	-0.027293544
79	0xbda5c265	-0.080937184
80	0x3db0c588	0.08631426
81	0x3e42356b	0.1896569
82	0x3e0c872d	0.1372344
83	0xbdbcd6f7	-0.09220689
84	0x3d82c3e2	0.06385018
85	0x3d45e845	0.048317213
86	0x3e44e1f5	0.19226821
87	0x3e603ab2	0.2189739
88	0x3c435685	0.011922483
89	0x3ce03f29	0.027373867
90	0xbd5bba48	-0.05364445
91	0xbc7ef880	-0.015562177
92	0x3efb0136	0.4902436
93	0x3cc7c7be	0.024387237
94	0x3d861eca	0.06548841
95	0xbcc334a7	-0.023828818
96	0xbd4e52cd	-0.050371934
97	0x3e07d60e	0.13265249
98	0x3e142fa1	0.14471294
99	0x3d5d12ab	0.05397288
100	0xbb6de9ea	-0.0036302754
101	0x3d8b2eaf	0.067960136
102	0x3e59ee43	0.21282296
103	0x3e4a285f	0.19741963
104	0x3e3a9d88	0.18224156
105	0xbb128e35	-0.0022362594
106	0x3d382bdc	0.044963703
107	0x3d1cfc4a	0.03832654
108	0x3e7f5ee8	0.24938548
109	0x3e3654fb	0.17805855
110	0xbd74d8c8	-0.05977705
111	0xbd377877	-0.04479262
112	0xbd10c34a	-0.035342492
113	0x3e139602	0.14412692
114	0x3e8eded5	0.27904382
115	0x3e11605b	0.14196913
116	0xbbf3b6e1	-0.0074375723
117	0x3c0e195f	0.008673041
118	0xbd560170	-0.052247465
119	0x3dd5b834	0.104355246
120	0x3f293260	0.6609249
121	0x3e38a7c0	0.18032742
122	0x3c512683	0.01276553
123	0x3d2a4951	0.041573826
124	0x3dd394f1	0.10331143
125	0xbd99dc87	-0.075127654
126	0x3f03a9ed	0.5143116
127	0x3e3b63fb	0.18299858

weight f4 [2, 128]
0	0x3ebf9908	0.3742144
1	0xbd19a68a	-0.03751234
2	0x3eca2ffb	0.3948973
3	0xbd9090ec	-0.07058892
4	0xbd751e16	-0.059843145
5	0x3ed95901	0.42450717
6	0xbda10929	-0.07863075
7	0x3e9caec1	0.30602077
8	0x3ed0dc9e	0.40793318
9	0xbd8fefc3	-0.07028153
10	0xbd65978c	-0.05605273
11	0x3ec1137b	0.37710175
12	0x3eadf1ea	0.33973628
13	0x3ed67fb8	0.41894317
14	0x3eccbfc6	0.39990062
15	0xbc7624e8	-0.015023448
16	0x3ec53621	0.3851786
17	0x3e986390	0.2976346
18	0x3c362cf7	0.011119119
19	0x3d5db542	0.05412794
20	0x3d809df8	0.0628013
21	0x3d9330d9	0.07187051
22	0xbd5faf9f	-0.054610845
23	0x3ed7adf3	0.421249
24	0xbd9bdd84	-0.0761061
25	0x3e9cfcbf	0.3066158
26	0xbd049793	-0.032371115
27	0x3eb38681	0.35063556
28	0x3ebe152b	0.37125525
29	0x3eb35a0c	0.35029638
30	0x3edffd5f	0.43747994
31	0x3e9e8d87	0.30967352
32	0x3ea6d8e2	0.32587343
33	0xbd2946bb	-0.04132722
34	0x3eaa2efa	0.33238965
35	0xbd19d5f5	-0.03755756
36	0x3ecdce2b	0.40196356
37	0x3f011ddb	0.5043618
38	0x3ed92cb8	0.4241693
39	0x3ec6a82c	0.3880018
40	0x3efbfe75	0.49217573
41	0xbd2a55b0	-0.041585624
42	0xbf311e59	-0.6918693
43	0x3eaac01a	0.33349687
44	0x3e9cfeb2	0.30663067
45	0x3ea74a44	0.32673848
46	0x3da873af	0.0822519
47	0x3e9ef136	0.31043404
48	0x3ecfa1de	0.40553182
49	0x3c8ce3e4	0.01719851
50	0x3d842f2b	0.06454309
51	0x3e9c64ba	0.30545598
52	0xbeb35db7	-0.35032436
53	0x3ed0f0d9	0.40808752
54	0xbbe1fd77	-0.0068966704
55	0x3ec7ba0c	0.3900913
56	0x3ec59541	0.38590434
57	0x3d0ce90a	0.03440193
58	0x3ea26dc2	0.31724364
59	0x3eae24ac	0.34012353
60	0x3ec62344	0.3869878
61	0xbae19340	-0.0017210022
62	0x3ebc7f3f	0.3681583
63	0x3eba26ec	0.3635782
64	0xbc85fb2f	-0.016355125
65	0x3eb11a17	0.34590217
66	0x3ed6a03c	0.41919124
67	0x3ec34a71	0.38142732
68	0x3eaa701a	0.33288652
69	0xbd0f18d2	-0.03493578
70	0x3ed92a29	0.42414978
71	0x3eb9fd46	0.36326045
72	0x3d30fde0	0.043210864
73	0x3eba60d2	0.36401993
74	0x3ee745a0	0.45170307
75	0x3eac1519	0.33609846
76	0x3ea97823	0.3309947
77	0x3eb006de	0.3438024
78	0x3c6d6810	0.014490142
79	0x3cad4550	0.021151215
80	0x3eae5137	0.34046337
81	0x3ec12a9b	0.37727818
82	0x3eca0fc6	0.3946516
83	0xbd3abf46	-0.04559257
84	0xbd2a050b	-0.041508716
85	0x3ece1832	0.40252835
86	0x3eb89725	0.36052814
87	0x3eabe6c3	0.33574495
88	0xbc27e2ca	-0.010246942
89	0x3d4773bb	0.048694354
90	0xbcf8b46a	-0.030359466
91	0x3c6f5800	0.014608383
92	0xbf20bfaf	-0.62792486
93	0xbcab5f12	-0.020919356
94	0xbcca5a4a	-0.024701256
95	0xba393d70	-0.0007066345
96	0x3bcef19e	0.006315424
97	0x3ebc8a36	0.36824197
98	0x3eadc1cf	0.33936927
99	0xbd62b357	-0.055346813
100	0xbcf80e3e	-0.030280229
101	0xbd80ddf1	-0.06292332
102	0x3edfcb9f	0.43710038
103	0x3ed56f29	0.4168637
104	0x3eafe483	0.34354028
105	0xbd5272ae	-0.0513789
106	0xbc675ab1	-0.014120744
107	0xbd1bc33d	-0.03802799
108	0x3e959c5c	0.29220855
109	0x3eb47441	0.35244945
110	0x3d57152a	0.052510418
111	0x3b5f342a	0.0034058192
112	0xbd222a40	-0.039591074
113	0x3eac5c2c	0.33664072
114	0x3ec8711f	0.39148805
115	0x3eb94253	0.36183414
116	0xbc88c254	-0.016694225
117	0xbd8a3d3b	-0.0674996
118	0xbd8ba3b8	-0.06818336
119	0x3e996ce6	0.29965895
120	0x3f1d6ed5	0.6149724
121	0x3eb67b4f	0.35640952
122	0xbd8a2981	-0.067461975
123	0xbbb5875d	-0.005539818
124	0x3eb64825	0.35601917
125	0x3c8fc678	0.017550692
126	0x3f612f7b	0.87963074
127	0x3eb6a2d4	0.35671103
128	0x3ece3674	0.4027592
129	0xbcd7d640	-0.02634728
130	0x3ec7c6da	0.390189
131	0xbcdea62e	-0.02717885
132	0xbb9d6f5e	-0.004804536
133	0x3e85766e	0.26066917
134	0xbcdb2a18	-0.02675347
135	0x3ed1e932	0.40998226
136	0x3edec149	0.4350684
137	0x3babc740	0.0052422583
138	0xbc31d705	-0.010854487
139	0x3eb292be	0.3487758
140	0x3ec0b991	0.37641576
141	0x3e8fc28f	0.28078124
142	0x3e6f5227	0.23371182
143	0xbc6357c8	-0.013875909
144	0x3ea5a1ff	0.32350156
145	0x3ece2a0d	0.40266457
146	0xbd81157c	-0.06302926
147	0x3cbd15c0	0.02308166
148	0xbb80f273	-0.003935152
149	0x3cbf7128	0.023369387
150	0x3d5880e0	0.05285728
151	0x3e98389b	0.29730687
152	0xbd44c158	-0.04803595
153	0x3ef226cd	0.47295228
154	0xbbba465f	-0.0056846584
155	0x3ed36364	0.41286767
156	0x3e9eac3d	0.30990782
157	0x3ecda14a	0.40162116
158	0x3e8dc5ac	0.27689874
159	0x3e87a4a1	0.2649279
160	0x3eca3639	0.39494494
161	0x3d3e55f6	0.046468697
162	0x3eb5139a	0.35366517
163	0xbd7edcb2	-0.06222219
164	0x3ea7a635	0.32743993
165	0x3e7d95fd	0.24764247
166	0xbebd33f8	-0.36953712
167	0x3ed3b225	0.4134685
168	0xbe472aae	-0.19449875
169	0xbd4e2117	-0.050324526
170	0xbf29d30b	-0.6633765
171	0x3ec9481e	0.39312834
172	0x3ebb06a3	0.365285
173	0x3e9e32be	0.30898088
174	0x3d065728	0.032797962
175	0x3ebec155	0.37256876
176	0x3e8a57ad	0.27020016
177	0xbbee3493	-0.007269451
178	0xbd662079	-0.056183312
179	0x3ef33b3a	0.47506124
180	0xbf7f42b0	-0.9971113
181	0x3ee37363	0.4442397
182	0xbcf808eb	-0.03027769
183	0x3ea1a7e7	0.31573412
184	0x3e92a245	0.28639427
185	0x3d2303b6	0.03979846
186	0x3eeaa168	0.45826268
187	0x3e9c7cd2	0.3056398
188	0x3ea43a75	0.3207585
189	0xbd5b8ea6	-0.053602837
190	0x3ed5f5af	0.41789004
191	0x3ed26ec0	0.4110012
192	0x3c7a4b21	0.015276701
193	0x3e9d8c86	0.30771273
194	0x3eb8b9b2	0.36079174
195	0x3ec2a558	0.38016772
196	0x3ed3f6cf	0.41399238
197	0xbd4d9f64	-0.050200835
198	0x3ed5ee4b	0.41783366
199	0x3ec4a479	0.38406733
200	0xbd67ceff	-0.05659389
201	0x3eb33d07	0.35007498
202	0xbe37e5ae	-0.1795871
203	0x3ee53474	0.4476658
204	0x3eaabf25	0.33348957
205	0x3e900d54	0.2813517
206	0xbd0c4b4e	-0.034251504
207	0x3d3f3d02	0.04668904
208	0x3f02e0dc	0.5112436
209	0x3ea3c499	0.3198593
210	0x3ea03fdb	0.31298718
211	0x3d333d93	0.043759894
212	0xbc2dc592	-0.010606186
213	0x3eaae269	0.33375862
214	0x3eae0c16	0.33993596
215	0xbe90e453	-0.28299198
216	0xbc3da5c8	-0.01157517
217	0xbd33cf9c	-0.043899164
218	0x3ce95815	0.028484384
219	0x3dad6437	0.0846638
220	0xbe908143	-0.2822362
221	0x3d1e5902	0.038659103
222	0xbd61d5a9	-0.055135403
223	0x3c19cbba	0.009386951
224	0xbd4cb9fc	-0.049982056
225	0x3ed45fed	0.41479436
226	0x3ea776fb	0.32707962
227	0xbd3c610e	-0.045990996
228	0xbccbc5fc	-0.02487468
229	0x3c74b17f	0.0149348965
230	0x3e826264	0.2546569
231	0x3e846bef	0.25863597
232	0x3ef13252	0.47108704
233	0x3cab704f	0.020927576
234	0xbaa0acc5	-0.0012258521
235	0xbd874178	-0.06604284
236	0x3ebe5ff2	0.37182575
237	0x3ecaa153	0.39576206
238	0x3d845599	0.06461639
239	0xbd6601b1	-0.056153957
240	0xbac6d640	-0.0015170053
241	0x3ea4c561	0.32181838
242	0x3ea97e81	0.33104327
243	0x3e9b2b6b	0.30306563
244	0xbcc10790	-0.023563176
245	0xbd0e9882	-0.03481341
246	0x3d217e9c	0.039427385
247	0x3ef7716c	0.48328722
248	0x3f701157	0.9377646
249	0x3eb820a5	0.35962406
250	0xbd0a48e3	-0.033760916
251	0x3d0f6919	0.03501234
252	0x3eb3aeb0	0.35094213
253	0x3b174039	0.0023079051
254	0x3f9d46c8	1.2287226
255	0x3f06fe01	0.5273133

bias f4 [2]
0	0x3e9ee05d	0.3103055
1	0x3e83eb9c	0.25765693
