results/dqn_cartpole/model.pt (torch, 71575 bytes, 6 tensors)

layers.0.weight f4 [128, 4]
0.20346707 0.0007953935 0.17054373 -0.26402527 -0.28130338 -0.95628345 -3.2042284 -0.9682845
0.34379375 0.6048262 -0.046256177 0.42594087 -0.35448262 0.051336255 0.4704627 0.15012063
-0.4906652 -1.130077 -3.2074072 -1.1257718 -0.041759104 0.123641215 0.42408717 -0.041176736
0.34163606 0.45216203 -0.49613762 -0.6616369 0.2622143 -0.086427204 -0.13131526 0.3242982
-0.28803027 0.28799522 -0.28919584 0.3123613 -0.030004973 0.89331394 1.7081302 0.73359627
0.16250291 -1.0364646 -3.041771 -1.0980165 0.003266437 0.18224236 0.5631029 0.12449477
-0.032378916 0.36555284 0.008564831 0.08778259 -0.59402525 -1.0612457 -3.0187123 -1.1384336
-0.13964957 0.029136539 -0.3135085 0.041177392 -0.03980198 -1.4119414 -2.5467253 -1.4051008
0.5133916 0.40687817 0.20141509 -0.0073655485 0.3986812 0.49519464 0.36982393 0.2688598
0.7516994 0.7727296 1.418061 0.9135578 0.31737 0.64406115 0.26697576 0.4417266
0.21486521 0.4676881 2.248087 0.4700882 0.098408714 0.008310153 0.02448138 0.38127413
-0.4206351 -0.68046016 -2.029243 -1.0918981 0.22531915 0.070888944 -0.26468056 0.5511109
0.3647245 -0.38616943 0.020929785 0.6299721 0.33162352 -0.13992655 -0.12888949 -0.24030389
0.16060494 0.0023307651 -0.053442422 -0.09075514 0.66169703 0.7016903 1.6762996 0.61020845
0.7981929 0.38161117 0.310945 0.2421448 0.18290329 -0.120480075 -1.9176925 -0.8798586
-1.1316719 -1.5847306 -3.298965 -1.4774218 0.018118475 0.60181 -0.14939518 0.538195
-0.09950552 -0.8611818 -2.413303 -1.0156316 -0.9488636 0.49455118 1.7892666 0.6351319
0.81586987 -0.2751072 0.3844795 -0.32134417 0.6229861 0.8624586 2.0739744 0.65681976
0.67056054 -0.55678463 -0.024039887 0.520956 -0.11938515 0.7359566 2.0765877 0.64307153
0.3172722 -0.10295196 0.59079283 -0.21349892 -0.04410329 0.15925582 0.057293676 -0.1196942
0.027727032 0.2782996 0.5932161 0.28534025 0.9105641 0.5529283 0.8102216 -0.030833222
-0.007701977 0.48686326 0.14013153 1.2238364 0.31072128 0.28394437 0.36262235 -0.06600897
0.71403074 0.97018254 1.808232 0.69114155 -0.51728976 -0.30668926 -1.8163959 -0.7408566
0.3349341 0.05791509 -0.48900864 0.4284001 0.32516485 0.0553529 -0.040283255 -0.23313771
0.51126194 0.29627833 1.7095075 0.37415096 0.6629059 0.4149392 2.1056173 0.65279436
0.023552813 -1.2520496 -2.9441366 -1.2573665 0.72788435 -0.05548603 -0.2829038 0.071376674
0.7916354 0.17589197 -0.12618911 0.20688799 -0.82335395 -1.0577371 -0.62947494 -0.11730653
0.34106788 0.077623576 0.42688623 0.16028263 0.4371451 -0.13030162 -0.26287434 0.4956117
-0.32202306 -0.6300109 -0.58933944 0.2423631 -0.6294375 0.2687579 -0.5733093 -0.7084016
0.7663518 0.9234513 1.7321736 1.1671631 -0.102329805 0.2557029 0.20433034 0.061958943
-1.5222613 -0.39628264 1.1016613 0.62162215 0.040292878 0.35311067 -0.20542823 -0.007470564
0.20068137 0.6817234 0.76878935 0.3827173 0.6212315 1.1448511 2.2480123 1.0089558
00000000: ac59 503e f481 503a 04a3 2e3e 522e 87be
00000010: ff06 90be fece 74bf 1412 4dc0 7ee1 77bf
00000020: bc05 b03e e4d5 1a3f 1e77 3dbd ec14 da3e
00000030: bf7e b5be f745 523d 7de0 f03e 39b9 193e
00000040: 7838 fbbe 5da6 90bf 2946 4dc0 4a19 90bf
00000050: 980b 2bbd 9b37 fd3d f421 d93e f0a8 28bd
00000060: ecea ae3e c881 e73e c005 febe 0961 29bf
00000070: f440 863e bf00 b1bd 8277 06be 6a0a a63e
00000080: b478 93be 1c74 933e 7a11 94be d2ed 9f3e
00000090: fdcc f5bc 39b0 643f 03a4 da3f f7cc 3b3f
000000a0: 2a67 263e dfaa 84bf 60ac 42c0 ce8b 8cbf
000000b0: b811 563b be9d 3a3e 8327 103f 1df7 fe3d
000000c0: c19f 04bd be29 bb3e 8153 0c3c 5cc7 b33d
000000d0: 0a12 18bf e6d6 87bf 9532 41c0 31b8 91bf
000000e0: 4c00 0fbe c0af ee3c 3084 a0be a0a9 283d
000000f0: 6707 23bd 7fba b4bf 8cfd 22c0 58da b3bf
00000100: a26d 033f 5652 d03e c23f 4e3e b35a f1bb
00000110: f11f cc3e 278a fd3e 9059 bd3e fea7 893e
00000120: 5f6f 403f 9bd1 453f 0683 b53f edde 693f
00000130: 527e a23e 31e1 243f 0cb1 883e fd29 e23e
00000140: a005 5c3e d174 ef3e a8e0 0f40 67af f03e
00000150: 828a c93d 4f27 083c 2d8d c83c 5d36 c33e
00000160: 7c5d d7be a332 2ebf 1edf 01c0 51c3 8bbf
00000170: 10ba 663e 392e 913d 3684 87be 9b15 0d3f
00000180: 2bbd ba3e 00b8 c5be f174 ab3c da45 213f
00000190: 8fca a93e e848 0fbe 9bfb 03be 3912 76be
000001a0: 9f75 243e c0bf 183b 71e6 5abd d5dd b9bd
000001b0: fa64 293f faa1 333f fc90 d63f 9f36 1c3f
000001c0: 5f56 4c3f 8a62 c33e 2f34 9f3e cef4 773e
000001d0: 004b 3b3e 42be f6bd f376 f5bf 6a3e 61bf
000001e0: a0da 90bf 74d8 cabf 3e22 53c0 281c bdbf
000001f0: 326d 943c 3810 1a3f 0dfb 18be 26c7 093f
00000200: 8dc9 cbbd 6976 5cbf 8e73 1ac0 3700 82bf
00000210: bae8 72bf d035 fd3e b006 e53f 0198 223f
00000220: d9dc 503f dada 8cbe 7fda c43e 3987 a4be
00000230: 047c 1f3f 16ca 5c3f ffbb 0440 5725 283f
00000240: dba9 2b3f 7089 0ebf 4cef c4bc 5f5d 053f
00000250: 3480 f4bd a767 3c3f d0e6 0440 56a0 243f
00000260: 8071 a23e 7ad8 d2bd 333e 173f 769f 5abe
00000270: a7a5 34bd f513 233e c6ac 6a3d 3c22 f5bd
00000280: cd23 e33c 497d 8e3e 03dd 173f 1e18 923e
00000290: bb1a 693f b68c 0d3f af6a 4f3f f495 fcbc
000002a0: de60 fcbb 2446 f93e a47e 0f3e aca6 9c3f
000002b0: dc16 9f3e 2861 913e a3a9 b93e b62f 87bd
000002c0: b8ca 363f e25d 783f 2574 e73f a7ee 303f
000002d0: 1a6d 04bf 6006 9dbe a97f e8bf c7a8 3dbf
000002e0: 7b7c ab3e 6038 6d3d 575f fabe 4257 db3e
000002f0: 027c a63e b9b9 623d 0e00 25bd a7bb 6ebe
00000300: 10e2 023f cbb1 973e 24d1 da3f b790 bf3e
00000310: 33b4 293f e972 d43e 6fc2 0640 881d 273f
00000320: d4f1 c03c 2943 a0bf bc6c 3cc0 63f1 a0bf
00000330: a156 3a3f 5245 63bd c4d8 90be ef2d 923d
00000340: 9ea8 4a3f 061d 343e b837 01be 72da 533e
00000350: 53c7 52bf ee63 87bf 4525 21bf 683e f0bd
00000360: 73a0 ae3e 1cf9 9e3d d590 da3e 2121 243e
00000370: 7cd1 df3e ca6d 05be 7797 86be d1c0 fd3e
00000380: 35e0 a4be 6548 21bf f3de 16bf 082e 783e
00000390: d122 21bf a39a 893e 66c4 12bf cf59 35bf
000003a0: a22f 443f 4e67 6c3f ddb7 dd3f 9a65 953f
000003b0: 4a92 d1bd 7eeb 823e f93b 513e a9c8 7d3d
000003c0: 75d9 c2bf 8fe5 cabe 3d03 8d3f a122 1f3f
000003d0: 250a 253d ecca b43e c75b 52be a2cb f4bb
000003e0: 6b7f 4d3e 6d85 2e3f 61cf 443f 86f3 c33e
000003f0: 0709 1f3f 7b8a 923f 6fdf 0f40 7725 813f

layers.0.bias f4 [128]
0.86290395 0.3123227 0.5614278 -0.45679247 0.18429522 -0.3194867 -0.5203662 0.43857938
-0.45542914 0.14084479 0.2784837 0.49075678 0.60079175 0.32596615 -0.48830074 0.12276793
0.9555004 0.5024044 0.15320167 0.43289578 0.28320256 0.96262056 0.45910427 0.5832061
0.45483947 0.6504856 0.6092616 0.05474964 0.33195513 0.6789189 0.3477557 0.7003757
0.39863074 0.3252206 0.6071579 0.21526699 0.5040796 0.2129002 0.606932 0.74052095
0.7068993 -0.06081796 -0.16166808 0.878089 0.18853186 0.4609865 0.42471662 0.9432553
-0.030642176 0.04907414 0.12787479 0.64771783 0.51486224 0.6408088 0.6939124 0.47921255
0.5386594 -0.41537145 0.22641733 0.55607593 -0.06587253 0.8712173 0.5721276 0.119594276
0.2933826 -0.39548978 0.82219595 0.8670079 0.7458229 0.60768753 0.5153636 0.8310133
0.9045654 0.3907395 0.54437953 -0.3620301 0.47601384 -0.35383958 0.30823663 0.215231
0.6256088 0.4090748 0.83269906 0.6510335 0.42880568 0.80973655 0.73755145 0.5637428
0.5629994 -0.08742231 0.8911704 0.37081456 -0.27052474 0.74881727 0.94852716 0.11858673
0.28173456 0.8051086 0.80021584 0.35369846 0.89302343 0.7275548 0.84143215 0.85816604
-0.44902688 0.18158369 0.59959984 0.53790665 0.7094019 0.7652699 0.91848433 -0.21863273
1.0977359 0.15472156 0.33898872 0.14513546 0.20928535 -0.46996093 0.22471538 0.72102743
0.023476137 0.6212317 1.0190856 0.615104 0.28754056 0.008115228 -0.21682651 0.9792247
00000000: 46e7 5c3f c3e8 9f3e bbb9 0f3f b4e0 e9be
00000010: e3b7 3c3e c393 a3be b836 05bf 7a8d e03e
00000020: 022e e9be 9e39 103e 6a95 8e3e 7944 fb3e
00000030: 7dcd 193f 09e5 a63e 8e02 fabe c16d fb3d
00000040: ad9b 743f 939d 003f e6e0 1c3e 84a4 dd3e
00000050: edff 903e 4d6e 763f b70f eb3e ff4c 153f
00000060: b8e0 e83e 3986 263f 91f8 1b3f 2941 603d
00000070: 06f6 a93e a1cd 2d3f 090d b23e d24b 333f
00000080: 5419 cc3e 5183 a63e b36e 1b3f f36e 5c3e
00000090: 5c0b 013f 8302 5a3e e55f 1b3f c892 3d3f
000000a0: 5af7 343f 411c 79bd 518c 25be 71ca 603f
000000b0: 7f0e 413e 6c06 ec3e 7574 d93e 2e79 713f
000000c0: 4d05 fbbc f701 493d 9cf1 023e d6d0 253f
000000d0: 03ce 033f 0c0c 243f 3ea4 313f 595b f53e
000000e0: 95e5 093f 91ab d4be f2d9 673e fe5a 0e3f
000000f0: 2de8 86bd 1908 5f3f f476 123f d8ed f43d
00000100: 3f36 963e a37d cabe 6f7b 523f 3bf4 5d3f
00000110: 40ee 3e3f 6991 1b3f deee 033f 4abd 543f
00000120: 9991 673f 020f c83e 755c 0b3f 025c b9be
00000130: 16b8 f33e 762a b5be 31d1 9d3e 8465 5c3e
00000140: e627 203f 4172 d13e c42b 553f 22aa 263f
00000150: 6b8c db3e e54a 4f3f 2cd0 3c3f 7351 103f
00000160: bb20 103f 780a b3bd be23 643f 68db bd3e
00000170: 3882 8abe 7db2 3f3f add2 723f 99dd f23d
00000180: 833f 903e 991b 4e3f f2da 4c3f f717 b53e
00000190: 2f9d 643f 0841 3a3f 1968 573f c5b0 5b3f
000001a0: dae6 e5be 13f1 393e 607f 193f 40b4 093f
000001b0: 5d9b 353f bae8 433f ca21 6b3f 42e1 5fbe
000001c0: 9c82 8c3f 546f 1e3e ee8f ad3e 649e 143e
000001d0: e64e 563e b89e f0be ca1b 663e 4195 383f
000001e0: 0751 c03c 0a09 1f3f 6671 823f 7577 1d3f
000001f0: 8438 933e bcf5 043c c507 5ebe 78ae 7a3f

layers.2.weight f4 [128, 128]
0.21970308 -1.452983 0.27095914 -0.034229748 -1.7803148 0.013817768 -0.52080953 0.1932316
-0.02213224 -1.2390051 -1.3636012 0.31713578 0.19485378 -1.5868034 0.004281193 -1.7782233
0.2808596 0.32622778 -0.809566 0.4790489 -1.2539809 0.28106278 -1.1538568 0.15919012
0.18760322 0.24815327 0.26367107 -0.7587508 -0.7492807 -0.89866275 -2.0936153 0.36305314
-1.1307018 -0.9646874 0.20170122 -0.49273944 -0.68770254 -1.1725663 0.31220376 0.11329095
0.3236589 -0.11517971 -0.45789236 0.14005046 -0.5388749 -0.6182288 0.22717641 0.16028792
-0.05353459 -0.6595558 -1.7051953 0.39593506 0.32338414 -0.9323105 0.37230033 0.10924063
-0.65911037 -0.5861294 -0.7496805 0.25198597 -0.7500476 0.14316076 0.25826856 -0.9420701
-0.93945724 -0.060408115 0.29092932 0.3210482 0.2839345 0.3463351 0.34602752 0.27721637
0.22256298 -0.047098115 -1.1409436 -0.524584 0.27597547 0.016977929 -1.5208144 -1.5061153
0.23402786 0.209336 0.24999408 0.2861545 0.26964176 0.23725201 0.38344836 0.33882606
0.089128345 -0.7696482 0.17477769 -0.7293001 -0.35367838 0.1780965 0.12619273 -0.67485815
-0.81736344 0.18766627 0.3297043 0.3298869 0.1996987 0.3205093 0.36175665 0.2629299
0.05302175 -0.027733494 0.21521103 0.410535 0.17211673 0.22173433 0.21175887 -0.31224063
0.09365722 -1.182193 -0.5593907 -1.7248167 -0.18960585 -0.0018745512 -0.68063724 0.23217662
-0.644658 0.15993679 0.110091664 -0.8280148 -1.011327 -0.4243475 -0.06020026 0.15874979
0.26710907 -1.5852584 0.29455227 -0.01121154 -1.8272943 0.08836288 -0.64012074 0.13609014
-0.022286788 -1.1975439 -1.4665933 0.25006065 0.2729776 -1.733558 -0.05379867 -1.9082989
0.25145572 0.36205226 -0.6356605 0.3730902 -1.1620356 0.2641861 -1.2878245 0.24042082
0.24625295 0.2885241 0.22029604 -0.82407165 -0.8600946 -0.9595884 -2.1489282 0.25500152
-1.1618911 -0.94113 0.36051485 -0.44243357 -0.63337046 -1.2436533 0.21687913 0.19317469
0.2203958 -0.29380023 -0.6802727 0.22889051 -0.57219577 -0.5785212 0.30077085 0.15587865
-0.00990459 -0.7465257 -1.6991814 0.38821843 0.42370626 -0.8324267 0.3577538 0.07827307
-0.6063131 -0.6430203 -0.4611909 0.3215925 -0.6835874 0.1214072 0.27954268 -1.0645369
-0.8641632 -0.023252442 0.2722013 0.29316548 0.27167758 0.4079711 0.30643138 0.30101314
0.3457887 0.033121143 -1.3391153 -0.85974854 0.47010064 0.07606601 -1.5713387 -1.7267276
0.27343464 0.24819517 0.2634628 0.3371076 0.10780629 0.21434942 0.33748215 0.44450215
0.2972363 -0.6396379 0.2111443 -0.7373378 -0.44075102 0.24809867 0.04720603 -0.6543016
-0.81567955 0.33884376 0.27907208 0.37462392 0.3192263 0.28992543 0.3550073 0.30713427
-0.07649622 0.07609432 0.29507726 0.32036906 0.33830827 0.25503826 0.23905776 -0.5699172
0.05730579 -1.1565497 -0.686885 -1.7743484 -0.2083514 -0.022724696 -0.6457803 0.32827556
-0.6755058 0.21761398 0.1977545 -0.9034701 -1.0716828 -0.7175948 -0.0011063814 0.17186353
00000000: d8f9 603e 59fb b9bf 28bb 8a3e 7e34 0cbd
00000010: 5be1 e3bf eb63 623c c653 05bf 81de 453e
00000020: ac4e b5bc b897 9ebf 7c8a aebf 9f5f a23e
00000030: c087 473e 601c cbbf 4049 8c3b d29c e3bf
00000040: d4cc 8f3e 5407 a73e b83f 4fbf e645 f53e
00000050: 7282 a0bf 76e7 8f3e 94b1 93bf bc02 233e
00000060: 0f1b 403e e41b 7e3e e5ff 863e 7e3d 42bf
00000070: dcd0 3fbf c30e 66bf cbfd 05c0 1ae2 b93e
00000080: d6ba 90bf c1f5 76bf c48a 4e3e 5848 fcbe
00000090: 460d 30bf a716 96bf 2cd9 9f3e 1605 e83d
000000a0: 9fb6 a53e 57e3 ebbd de70 eabe 6369 0f3e
000000b0: b5f3 09bf 3e44 1ebf efa0 683e 8422 243e
000000c0: 1647 5bbd a6d8 28bf d743 dabf 00b8 ca3e
000000d0: 9b92 a53e e7ab 6ebf 269e be3e 8db9 df3d
000000e0: 75bb 28bf 940c 16bf 10eb 3fbf 4e04 813e
000000f0: 1f03 40bf bc98 123e c73b 843e 822b 71bf
00000100: 4580 70bf 806e 77bd b0f4 943e 6e60 a43e
00000110: dd5f 913e d652 b13e 852a b13e 4eef 8d3e
00000120: 8de7 633e f4e9 40bd 710a 92bf 234b 06bf
00000130: a84c 8d3e 4c15 8b3c 0caa c2bf 63c8 c0bf
00000140: 00a5 6f3e 2d5c 563e 73fe 7f3e d882 923e
00000150: 7c0e 8a3e 31f2 723e 5853 c43e 9c7a ad3e
00000160: ec88 b63d aa07 45bf ecf8 323e 69b3 3abf
00000170: 5515 b5be ee5e 363e ab38 013e 81c3 2cbf
00000180: bb3e 51bf 962b 403e 01cf a83e f0e6 a83e
00000190: d17d 4c3e cc19 a43e 2b38 b93e bf9e 863e
000001a0: 562d 593d 5a31 e3bc 4860 5c3e a531 d23e
000001b0: 5e3f 303e 530e 633e 51d7 583e 01de 9fbe
000001c0: 5bcf bf3d 1a52 97bf 3b34 0fbf cbc6 dcbf
000001d0: 0928 42be 80b3 f5ba 3e3e 2ebf b5bf 6d3e
000001e0: 4f08 25bf 78c6 233e bd77 e13d c7f8 53bf
000001f0: 2a73 81bf 1344 d9be 8c94 76bd 4e8f 223e
00000200: 85c2 883e bfe9 cabf 8ecf 963e 9bb0 37bc
00000210: c8e4 e9bf 99f7 b43d f4de 23bf 375b 0b3e
00000220: c892 b6bc 1e49 99bf 54b9 bbbf f307 803e
00000230: b8c3 8b3e 3be5 ddbf ff5b 5cbd 2343 f4bf
00000240: cebe 803e ea5e b93e a6ba 22bf ae05 bf3e
00000250: 95bd 94bf 6743 873e 6fd7 a4bf e030 763e
00000260: bc29 7c3e 6eb9 933e 4995 613e 5cf6 52bf
00000270: 292f 5cbf 96a7 75bf 0a88 09c0 8f8f 823e
00000280: d9b8 94bf e5ed 70bf 6795 b83e a786 e2be
00000290: 9124 22bf 0830 9fbf 9015 5e3e 96cf 453e
000002a0: 70af 613e fc6c 96be 5a26 2ebf 4662 6a3e
000002b0: 6c7b 12bf f719 14bf a3fe 993e a79e 1f3e
000002c0: dd46 22bc 4f1c 3fbf c77e d9bf 91c4 c63e
000002d0: 07f0 d83e eb19 55bf 822b b73e a24d a03d
000002e0: 5637 1bbf fa9c 24bf 3721 ecbe c6a7 a43e
000002f0: 95ff 2ebf 57a4 f83d 3820 8f3e bf42 88bf
00000300: cd39 5dbf e87b bebc f85d 8b3e c919 963e
00000310: 5319 8b3e 97e1 d03e 93e4 9c3e 651e 9a3e
00000320: 370b b13e 09aa 073d 2168 abbf 7b18 5cbf
00000330: 08b1 f03e 7fc8 9b3d a021 c9bf 6905 ddbf
00000340: a0ff 8b3e e026 7e3e 99e4 863e 5e99 ac3e
00000350: 8bc9 dc3d 6a7e 5b3e 76ca ac3e c995 e33e
00000360: 5b2f 983e 4fbf 23bf 3636 583e 2cc2 3cbf
00000370: 1eaa e1be 940d 7e3e 1c5b 413d 4f80 27bf
00000380: 60d0 50bf ee7c ad3e 89e2 8e3e b5ce bf3e
00000390: a171 a33e 1b71 943e 84c3 b53e b440 9d3e
000003a0: 0daa 9cbd 57d7 9b3d 5e14 973e 6a07 a43e
000003b0: be36 ad3e 6094 823e 8fcb 743e 18e6 11bf
000003c0: 7ab9 6a3d d209 94bf b2d7 2fbf d91d e3bf
000003d0: 125a 55be 2429 babc dc51 25bf bc13 a83e
000003e0: f3ed 2cbf 33d6 5e3e 2880 4a3e d149 67bf
000003f0: e72c 89bf 4bb4 37bf 0004 91ba fefc 2f3e

layers.2.bias f4 [128]
0.09885126 0.2534991 0.4720143 0.21043245 0.17616741 0.13699509 -0.088365756 -0.10090441
-0.08025114 -0.064368784 0.10951641 0.57280403 0.5248744 -0.0469202 0.13571788 0.4736771
0.26303264 0.23219277 0.26105082 0.23694369 0.013157177 0.07098352 -0.102041095 -0.08019274
0.14178328 -0.019165672 0.015487319 0.009161057 0.17781736 0.20534843 0.5865076 -0.057515018
-0.11044679 0.5654747 -0.09110719 0.058133993 -0.008873247 0.4949786 0.2668462 0.053519987
0.021806953 0.19098787 0.12190411 0.27292675 -0.027072791 0.20262903 -0.07185866 0.21805501
0.18762715 -0.10545204 -0.059876937 0.23092972 0.068406984 0.2214991 0.35394245 0.0021275016
0.40583614 -0.0048001707 -0.024001906 0.29919222 0.10101567 0.1595267 0.1589797 -0.050310347
0.27598917 0.24773178 0.16138197 -0.084126815 0.19918378 0.41092673 0.22081381 0.16875976
0.16567881 0.06560744 0.034454294 -0.056319244 0.05343069 -0.09074286 0.33246815 0.12698227
0.43258154 -0.120585755 0.23720215 -0.0050735385 -0.05116524 -0.019124692 0.0656779 0.20931622
0.22779319 0.045976542 0.47335005 0.23554416 -0.044931278 0.18231918 0.1863456 0.4691995
0.25857154 0.038975555 -0.05488331 -0.07519362 0.32553115 -0.1407495 0.070916824 0.30158618
0.1664117 0.07536971 0.42310816 0.24138276 -0.0023872186 -0.028001048 0.013669887 0.069227785
-0.012113626 0.044301886 0.15520218 0.23729007 -0.10306055 -0.02213424 0.14240633 -0.09507496
0.0025055432 0.28098094 -0.090384565 0.55529606 0.19259591 0.0040211035 0.06311983 0.32078275
00000000: 8872 ca3d a2ca 813e dcab f13e 9b7b 573e
00000010: 3b65 343e 7148 0c3e 1bf9 b4bd f9a6 cebd
00000020: b65a a4bd c8d3 83bd 244a e03d 49a3 123f
00000030: 2b5e 063f 652f 40bd a1f9 0a3e ce85 f23e
00000040: 37ac 863e f1c3 6d3e 74a8 853e 5ea1 723e
00000050: 3391 573c cf5f 913d ecfa d0bd 173c a4bd
00000060: a32f 113e 5401 9dbc 86be 7d3c 4218 163c
00000070: c115 363e dc46 523e 5d25 163f de94 6bbd
00000080: ed31 e2bd f3c2 103f 6896 babd e91d 6e3d
00000090: 1861 11bc d66d fd3e 11a0 883e c637 5b3d
000000a0: 7fa4 b23c 5392 433e dda8 f93d 0ebd 8b3e
000000b0: c2c7 ddbc fc7d 4f3e a22a 93bd d049 5f3e
000000c0: 5521 403e 3df7 d7bd 8541 75bd d778 6c3e
000000d0: f618 8c3d a9d0 623e f237 b53e 8e6d 0b3b
000000e0: c1c9 cf3e c04a 9dbb a59f c4bc b92f 993e
000000f0: 4ee1 ce3d f85a 233e 93cb 223e 3912 4ebd
00000100: 744e 8d3e 66ad 7d3e 5141 253e ae4a acbd
00000110: d5f6 4b3e fd64 d23e 041d 623e 5ccf 2c3e
00000120: b5a7 293e 325d 863d f21f 0d3d 02af 66bd
00000130: 24da 5a3d 65d7 b9bd 4439 aa3e a407 023e
00000140: 547b dd3e aaf5 f6bd 1fe5 723e ed3f a6bb
00000150: a592 51bd 63ab 9cbc 2382 863d fe56 563e
00000160: 9e42 693e e651 3c3d f05a f23e 7d32 713e
00000170: dc09 38bd e1b1 3a3e 62d1 3e3e eb3a f03e
00000180: 7d63 843e d5a4 1f3d 52cd 60bd 1dff 99bd
00000190: 05ac a63e a320 10be d73c 913d 8169 9a3e
000001a0: d467 2a3e 6f5b 9a3d a2a1 d83e 0b2d 773e
000001b0: e272 1cbb 7462 e5bc a9f7 5f3c 4cc7 8d3d
000001c0: 3b78 46bc e575 353d 52ed 1e3e 2bfc 723e
000001d0: 6911 d3bd de52 b5bc f7d2 113e a9b6 c2bd
000001e0: 0a34 243b bcdc 8f3e 8b1b b9bd e227 0e3f
000001f0: dd37 453e 76c3 833b f844 813d a33d a43e

layers.4.weight f4 [2, 128]
0.6400954 0.68990034 0.60819393 0.789108 0.6489813 0.57856613 -0.032187384 0.046204273
-0.005065965 -0.0440266 0.66706586 0.7255124 0.7618852 -0.0029475912 -0.81146485 0.6161452
0.65494114 0.577837 0.64137053 0.51966166 -0.081012 -0.57845813 -0.033034414 0.0027148053
0.91192186 0.015105486 0.66207546 -0.0070548123 0.6753583 0.73800313 0.7416166 -0.010431547
0.062027548 0.64560854 0.024190145 0.6822436 0.029711634 0.41637546 0.7621848 0.07610098
0.03269963 0.7387751 0.73577625 -0.78960645 -0.043465264 0.7612581 -0.07271973 0.7069966
0.5450343 0.029700072 0.0694559 0.75548846 -0.023280464 0.6922117 -0.23432393 0.024902595
0.6197125 -0.029889861 0.048235677 0.08206094 0.589846 0.80713105 -0.07693544 0.023236804
0.5889413 0.5248552 0.6438058 -0.0035174266 0.85642165 0.7910899 0.6042162 0.8704805
0.72064006 0.055724606 -0.029439235 0.01230985 0.027529696 -0.042761188 -0.81801933 0.69149107
-0.29367003 0.0055863517 0.6388193 0.026219923 0.0039884 0.04570493 0.007154695 0.67078316
0.68499386 -0.0039736805 -0.18412566 0.72820497 0.036440138 0.85405195 0.75766253 0.81908345
0.5851822 -0.041337024 0.010482464 0.0012212005 0.70089906 -0.0093562165 -0.077901796 0.75049216
0.67560494 0.6787188 0.7799852 0.5799238 -0.079826266 -0.05183273 0.73379695 0.060377598
-0.07546404 0.64213735 0.6680588 0.7956628 0.042020034 -0.038824767 0.7827795 0.059090875
0.00088692055 0.5337832 0.02007158 0.7657677 0.78499186 -0.03378268 -0.002500425 -0.4557591
0.68448246 0.73299086 0.7612206 0.4973939 0.63687575 0.86799127 -0.012207252 0.0056828107
-0.033216868 0.03454344 0.81385696 0.49456123 0.56586254 0.056014262 0.08887813 0.8126243
0.8728424 0.7088169 0.7931942 0.9422916 0.016246028 0.4606739 -0.001703482 -0.06270775
0.50508857 -0.070512354 0.5992832 -0.002949901 0.8160863 0.7252938 0.51562774 -0.06192374
0.08484984 0.6014562 0.03719089 0.81538594 -0.06400546 0.5319492 0.55860317 -0.07176054
0.09993984 0.5937431 0.50958335 -0.8083772 -0.022532152 0.6327092 -0.030636042 0.5739419
0.96895236 -0.004219617 -0.072750024 0.75044733 0.034461122 0.76972455 -0.50812304 -0.04459876
0.8225612 -0.05220249 0.02815895 0.88665056 0.85395133 0.58952177 0.77002484 -0.07167415
0.9371555 0.6904757 0.754822 -0.07944959 0.47073385 0.5407087 0.82683736 0.51281536
0.6301703 -0.07128527 -0.050976664 -0.07167468 -0.027878288 -0.035887513 -0.96488404 0.71854013
-0.75195366 0.0067317584 0.84881324 -0.03754203 0.026343994 -0.01792454 0.043311764 0.641163
0.54859906 -0.05550473 -0.5384963 0.63570464 -0.038899224 0.5769725 0.7269573 0.45471463
0.87959224 -0.05483247 -0.048684474 -0.011280888 0.77217877 0.026739346 -0.024908198 0.47934738
0.5497077 0.5792302 0.2718768 0.8557445 0.028635666 0.040135138 0.6279454 -0.038046297
-0.03971785 0.6145983 0.6480771 0.74578124 0.052976243 -0.03921209 0.55806774 -0.05411424
-0.06687718 0.7543703 -0.02272936 0.55134887 0.6289533 0.06050148 -0.040988583 -0.35191038
00000000: 4bdd 233f 4f9d 303f 99b2 1b3f fb02 4a3f
00000010: a323 263f e91c 143f ebd6 03bd b140 3d3d
00000020: 6500 a6bb 3c55 34bd d4c4 2a3f 2ebb 393f
00000030: e90a 433f 602c 41bb 29bc 4fbf b1bb 1d3f
00000040: 39aa 273f 20ed 133f dc30 243f 8c08 053f
00000050: 9fe9 a5bd d515 14bf 184f 07bd e0ea 313b
00000060: b673 693f 007d 773c c77d 293f 0e2c e7bb
00000070: 48e4 2c3f c6ed 3c3f 96da 3d3f 14e9 2abc
00000080: 9910 7e3d 9a46 253f 692a c63c 84a7 2e3f
00000090: d065 f33c 2a2f d53e 8b1e 433f d5da 9b3d
000000a0: 0cf0 053d 5d20 3d3f d55b 3c3f a623 4abf
000000b0: a208 32bd d0e1 423f 15ee 94bd bbfd 343f
000000c0: 5e87 0b3f 914d f33c e53e 8e3d b167 413f
000000d0: acb6 bebc c934 313f 9df2 6fbe 8700 cc3c
000000e0: 7aa5 1e3f 95db f4bc c692 453d 910f a83d
000000f0: 2600 173f 24a0 4e3f 5490 9dbd 1c5b be3c
00000100: dbc4 163f e95c 063f 75d0 243f a084 66bb
00000110: 733e 5b3f de84 4a3f eaad 1a3f cfd7 5e3f
00000120: de7b 383f 7c3f 643d 8d2a f1bc 41af 493c
00000130: f585 e13c 5b26 2fbd b769 51bf 8f05 313f
00000140: eb5b 96be b70d b73b a989 233f 2acb d63c
00000150: 20b1 823b 1835 3b3d ef71 ea3b 72b8 2b3f
00000160: c25b 2f3f a635 82bb 708b 3cbe a46b 3a3f
00000170: 4142 153d 26a3 5a3f 2cf6 413f 74af 513f
00000180: 80ce 153f 0351 29bd a4be 2b3c b010 a03a
00000190: 1f6e 333f d14a 19bc fa8a 9fbd 4120 403f
000001a0: 72f4 2c3f 84c0 2d3f 1cad 473f e375 143f
000001b0: f47b a3bd 8f4e 54bd 1eda 3b3f 804e 773d
000001c0: e48c 9abd 1d63 243f e705 2b3f 8fb0 4b3f
000001d0: 331d 2c3d b806 1fbd 3d64 483f 4609 723d
000001e0: 3b80 683a 04a6 083f 276d a43c 5a09 443f
000001f0: 3af5 483f b55f 0abd 2cde 23bb 4259 e9be
00000200: 3e3a 2f3f 4aa5 3b3f 5adf 423f 6aaa fe3e
00000210: 4a0a 233f ad34 5e3f ed00 48bc df36 ba3b
00000220: 690e 08bd 6c7d 0d3d ee58 503f 2137 fd3e
00000230: 5edc 103f 366f 653d bd05 b63d 2508 503f
00000240: 9972 5f3f 0675 353f c60e 4b3f 063a 713f
00000250: 6416 853c 73dd eb3e 5f47 dfba ec6c 80bd
00000260: 7c4d 013f c868 90bd a06a 193f 2053 41bb
00000270: 08eb 503f dbac 393f 2e00 043f bfa3 7dbd
00000280: c1c5 ad3d 09f9 193f 7a55 183d 22bd 503f
00000290: 4b15 83bd d32d 083f 9e00 0f3f 31f7 92bd
000002a0: 42ad cc3d 8cff 173f 0e74 023f cff1 4ebf
000002b0: 5995 b8bc 3bf9 213f 70f8 fabc dbed 123f
000002c0: 430d 783f b744 8abb f7fd 94bd 511d 403f
000002d0: 1b27 0d3d ab0c 453f 5a14 02bf 30ad 36bd
000002e0: 5f93 523f 47d2 55bd 99ad e63c 88fb 623f
000002f0: 8e9c 5a3f e6ea 163f 5920 453f e6c9 92bd
00000300: 6ce9 6f3f 04c3 303f 043c 413f 77b6 a2bd
00000310: 0704 f13e e36b 0a3f 9dab 533f de47 033f
00000320: d752 213f 03fe 91bd e8cc 50bd 2dca 92bd
00000330: 0261 e4bc c9fe 12bd a402 77bf 3ff2 373f
00000340: 0980 40bf 1596 dc3b d34b 593f acc5 19bd
00000350: 5ccf d73c 7cd6 92bc ad67 313d 4223 243f
00000360: fd70 0c3f ee58 63bd e5da 09bf 8abd 223f
00000370: cb54 1fbd 78b4 133f e019 3a3f 5bd0 e83e
00000380: f52c 613f 0398 60bd 5f69 47bd 79d3 38bc
00000390: 82ad 453f 790c db3c 470c ccbc 056d f53e
000003a0: a5b9 0c3f 6e48 143f 7033 8b3e 1212 5b3f
000003b0: 5895 ea3c be64 243d 08c1 203f 6fd6 1bbd
000003c0: 2faf 22bd 5056 1d3f 61e8 253f 85eb 3e3f
000003d0: 9efd 583d db9c 20bd 87dd 0e3f e5a6 5dbd
000003e0: e7f6 88bd 691e 413f ec32 babc 3325 0d3f
000003f0: 1503 213f 66d0 773d a5e3 27bd 992d b4be

layers.4.bias f4 [2]
0.68118405 0.39050394
00000000: 1462 2e3f 22f0 c73e
